checkpoint_critic.pth (torch_old, 308949 bytes, 9 tensors)

fcs1.weight f4 [256, 33]
00000000: 5ff7 593c 32dc f9bd ebc1 823d 618f 193c
00000010: ab8e 8ebd 4b3a 8b3c 3284 fcbc 8579 c3bc
00000020: 3d94 173e 159f 5abc 801d cd3b 3441 08bd
00000030: 9f62 4d3c 4adb 043d 2f4c e03d ac12 0e3d
00000040: 99a6 f0bc 8bc6 5c3d 9bdf 96bc 4654 5b3d
00000050: bae4 7bbb 30fa afbc f858 a1bc d05c 59bc
00000060: 1fd1 693c 7639 83bc ec70 5abc 5447 d93e
00000070: f5d4 3bbe e0fa bebb 1951 c9be 064c 663d
00000080: 4d0a 7ec0 391c f33a 64eb 05bf 16f5 203e
00000090: 74cf 383e fc56 133f a335 c0bd ddb2 2cbd
000000a0: 1437 dc3d 9add 613b 2faf 9ebe 171b 5a3e
000000b0: 3379 9c3b 3ce1 ed3d a610 9c3e baeb d63e
000000c0: a336 f9bc fe79 373e 2669 af3d 339a b53d
000000d0: cf94 ce3c 3307 433d 183d b4bd 5296 04bd
000000e0: dda4 0e3d 34e0 613e a0fe ab3c 685d c9be
000000f0: 9a49 7d3e c5d6 23bc 96bc 4c3d f9b1 39be
00000100: 9af4 313d a68b 1c3f 3540 4a3e fd0a 33be
00000110: df38 633d ac03 79bd cb65 013d 36cf 0b3b
00000120: 5563 7dbe 4247 63bd 5dca f6bd 643d 07be
00000130: cdd7 9d3d 3509 2dbd 57ee 67bb f016 38bd
00000140: 3f77 ce3d 6b58 033d 2eef c03d 2161 353b
00000150: 5de1 053e 3a12 9fbd 9b31 c5bc 7490 1dbd
00000160: 2b20 16bc 97d1 7dbd f942 873c 728e 08bd
00000170: 93e2 4cbe 443f 3b3f 9d52 04be e0e3 01bb
00000180: 0e6f 23bf 4834 3e3d 51fb 4cc0 37f5 5cbe
00000190: c9ca fa3e b9f0 9abe d260 b63d 13af b0be
000001a0: c9a6 893e 6858 8d3e 5598 01be e7a3 9dbf
000001b0: ae2c 4b3e ca73 ad3c a931 803e 4180 1cbe
000001c0: 85dd ad3e 4318 393e 3332 023f 5188 183e
000001d0: f0c1 b1bc 3d2d c7bd 222a 493e f65d 13be
000001e0: 9b36 223d 06cc a7bc fd43 a63e 8e93 473e
000001f0: 95ad a53d bce0 3abe 4e15 163f b184 9dbe
00000200: e649 61bd fe30 0ebf 82ae 14bd 0bf2 bdbf
00000210: adf4 ec3d 347b 6dbe 77b1 2a3d 5b45 363e
00000220: 9d73 0bbc 1cab adbc b165 993e 9833 72bc
00000230: 2f42 23bd 0224 1abe e740 963d 7c54 73bd
00000240: 0b37 543d 5dd5 c83d 9237 283d d263 a1bd
00000250: 89dd 12be 05e1 a73c 37d0 a9bd 3e41 5ebd
00000260: f99a 07bd bf07 d4bd 29a6 a9bc 40dc 5f3e
00000270: 0b07 27bd 0a5d 9e3d 0f7d a33e 002e 4fbe
00000280: a05b 643d 7830 05bc 9f63 1d3e 6012 193c
00000290: 04e7 173f a030 43bf 5744 80be a38d 42bd
000002a0: 7e59 543d ff07 883d d4d0 4c3e 933f dfbd
000002b0: 71af c03c 9b90 96bd aeca 80be ed15 173b
000002c0: 0f66 453c 2db2 623c 2722 673f 0404 a93e
000002d0: 065d b6bc 2367 db3d 304d d9bc 2920 c03d
000002e0: 86aa 4f3d 4c28 e3bc 0f89 74bc 9f27 f33c
000002f0: 7149 f83d fb3b 0f3d 8d9f 233d 63fd f5be
00000300: c2d9 253e 412c dc3c c48a 073d 8a94 3abe
00000310: cc9e 70bd 6911 9f3e 5b0e 443f b870 213e
00000320: a3c5 08bf 39fc 7abe 342a 71be 6c82 01be
00000330: c4de 80be 56da 38be 4bd6 3a3e 9b47 adbe
00000340: d065 2d3e 96b9 bbbd fd63 b3bd ccdf b0be
00000350: a628 c53a d9f4 763e 9564 383e 32a7 7d3d
00000360: 5786 ccbd 8a82 663d 502d 033c 9da3 883d
00000370: ac35 943d 634f 65be b8fa 9fbc cf22 5b3d
00000380: cd03 b9bd f3f7 99bc cf44 fd3d 68d8 86bc
00000390: a4ec ed3c 2cf5 cb3c 0e67 cebe 17dc 9f3d
000003a0: 442d 38bd 28da adbd 6fce fe3d 9cd3 b3be
000003b0: 236c 5dbe cf72 67be 5639 983b a5da a3bd
000003c0: 62ba 25bc 9f11 aabc 8c53 abbc 6218 14bc
000003d0: abd1 d5bc 82b6 78bc 1b87 2b3d 8fb0 5fbd
000003e0: e4a7 1a3d db64 16be 37e0 66bc 0049 c63b
000003f0: 4db3 e0bc 3b05 b83c e302 8abc 06a6 06bb
0.013303607 -0.12200202 0.06384643 0.009372563 -0.069608055 0.01699557 -0.030824754 -0.023861656
0.14802642 -0.013343592 0.00625962 -0.033265308 0.01253572 0.032435693 0.10952031 0.034685776
-0.029376315 0.053900283 -0.01841717 0.053547166 -0.0038435892 -0.021481603 -0.019695744 -0.013266757
0.01427105 -0.01601861 -0.013332587 0.42437232 -0.18342955 -0.0058282465 -0.39319685 0.056224845
-3.9693787 0.001854784 -0.523123 0.15718493 0.18047887 0.575546 -0.093852304 -0.042162765
0.10752693 0.003446436 -0.3099303 0.21299396 0.0047751903 0.11615226 0.30481452 0.4197672
-0.03042156 0.1791763 0.08564977 0.08867302 0.025217442 0.047614288 -0.08800715 -0.03236992
0.034825195 0.22058183 0.020995438 -0.39329076 0.24735108 -0.0099999355 0.049984537 -0.18134297
0.04344616 0.61150587 0.19751056 -0.1748466 0.05547416 -0.060794517 0.031591218 0.0021333224
-0.24744923 -0.05548788 -0.120503165 -0.13207012 0.07707176 -0.04224511 -0.0035389864 -0.04494375
0.10081338 0.032066744 0.0942062 0.0027676302 0.1307425 -0.07767148 -0.024071505 -0.03846784
-0.009162943 -0.06196746 0.016511427 -0.03333897 -0.20008306 0.7314341 -0.1292214 -0.0019819662
-0.6384133 0.046436578 -3.2028391 -0.21577917 0.48982838 -0.30261782 0.08905186 -0.3450857
0.2688506 0.2760651 -0.12655766 -1.2315644 0.19841263 0.021173377 0.25037888 -0.152833
0.33958068 0.18075661 0.5085785 0.1489575 -0.021698922 -0.097254254 0.19644979 -0.14391312
0.039602857 -0.020483028 0.32473746 0.19489881 0.08089749 -0.18249792 0.5862626 -0.30765298
-0.055002116 -0.55543506 -0.036299236 -1.4839491 0.11570106 -0.2319153 0.04167315 0.17799895
-0.008511451 -0.021199755 0.29960397 -0.014782809 -0.03985804 -0.15052798 0.07336598 -0.059406742
0.051810306 0.09806321 0.04106862 -0.07880367 -0.14342321 0.02049304 -0.08291667 -0.05426144
-0.033106778 -0.1035304 -0.020709114 0.21861362 -0.0407782 0.077325895 0.3193135 -0.20232391
0.055751443 -0.008129232 0.15370034 0.00934276 0.59336877 -0.7624607 -0.2505214 -0.047498357
0.05184316 0.0664215 0.20001537 -0.10900798 0.023521157 -0.073518 -0.25154632 0.002305384
0.012048258 0.013836426 0.9028649 0.33010876 -0.022261154 0.10713031 -0.026526064 0.09381134
0.050699733 -0.027729176 -0.014925255 0.029681979 0.12123383 0.03496931 0.03994708 -0.4804488
0.1619635 0.02687657 0.03309132 -0.18220726 -0.05874519 0.3106797 0.76584405 0.15765655
-0.5342657 -0.24510278 -0.23551255 -0.12647408 -0.25169957 -0.18052039 0.18245809 -0.33843693
0.1693337 -0.09166257 -0.087593056 -0.34545743 0.0015042021 0.2411684 0.18007119 0.061927028
-0.09986561 0.056276836 0.008006409 0.06671832 0.072367996 -0.22393565 -0.019528732 0.053499993
-0.09033928 -0.01879499 0.1236664 -0.016460612 0.029043503 0.02489718 -0.40313 0.07805651
-0.044965044 -0.08488876 0.12441718 -0.35122383 -0.21623282 -0.2260239 0.004645507 -0.080006875
-0.010115238 -0.020760356 -0.020913862 -0.009039016 -0.026100954 -0.015180232 0.041876893 -0.05461174
0.03775777 -0.14686911 -0.014091543 0.0060511827 -0.027429247 0.022463432 -0.01684708 -0.0020545735

fcs1.bias f4 [256]
00000000: b19c e3be 5719 97be f15d 0cbf d28f 2bbf
00000010: a9cb 833e 995d 38be 5730 23be 9eb0 b2be
00000020: 8a93 5bbf 48ab 29be 5a8b c2be 0ce7 98bf
00000030: b10b 60bf 3a13 74bf 093a 19bf b642 43be
00000040: 592a 5cbf 9d43 71bf c20c 0e3e e570 7ebf
00000050: 1abb 56be 9a0b 67bf 4c71 f9be 1373 55bf
00000060: 5cba 60bf 1ad3 7fbe c833 a2be b114 89bf
00000070: 9e9b 93bf 5b11 62be 5646 aabe 91b5 00bf
00000080: 6528 08bf 20b3 31bf 6d0a 79bf bce9 09bf
00000090: 811d 1ebf 331b 18bf 99f2 2cbf efc2 babe
000000a0: 9113 12bf 35d0 c4be baca 27bf d52e b4be
000000b0: 1269 aabe 2a40 1cbf 93e5 87bf 0a7b 5dbf
000000c0: 09fe 29bf cf55 0f3e 2afd 783d 5639 4fbe
000000d0: 560c 59bf 39f7 aabf 1e1d 54bf 29d3 8fbf
000000e0: 7888 5dbf 6f49 20bf d1b4 33bf 34ee 9f3d
000000f0: b06c 84bf 2734 2bbf 1371 9dbe ca5b 21bf
00000100: c702 b3bf d629 42bf e5c6 26bf c5d1 28be
00000110: a5fc cabe f096 d9be eb00 47bf 34e7 63bf
00000120: 5200 7abf ad86 1fbf 9127 bdbd d29d 17bf
00000130: 50db 66bf fabd a6be a110 5abf 4a08 17bf
00000140: b0b9 463e 8ba5 52bf 7447 97bf 42a3 84bf
00000150: 35ef 9dbe f285 c0be b2d8 9bbe a8b3 a3bf
00000160: f41e c4be 6d20 37bf 110c 83bf 88ba 64bf
00000170: 1a6a 1ebf e8f2 20bf 2723 91bf 8b2a 79bf
00000180: c7c2 2dbe 9282 3bbf 36df 6bbf 4843 1a3f
00000190: 1d9e e7be e751 9abf d566 7fbd 7330 44be
000001a0: aab7 a1bf 71f0 0ebf 9733 06bf 1f71 7dbe
000001b0: 3b89 15bf 65ca debe afca f5be 85e6 f0bd
000001c0: 29ba 04bf 1f49 1bbe c878 3ebf 3b7c 1abf
000001d0: a6e1 b1bf eab9 c8be 1b1f 14bf 770f 83bf
000001e0: 8dc4 d2be a844 5bbe 8217 9f3e 107a 14bf
000001f0: a3c7 bc3d 6c6a 8fbf 96b2 17bf ec42 52bf
00000200: cd1f 1fbf fc18 67bf 1df2 19bf e1f0 85bf
00000210: 1bad 733f 67aa 5abf 4030 b8be ee40 a8bf
00000220: e6d7 44bf 913a a2bf dc20 44bf 7f02 b9bf
00000230: 1426 81bf fe45 35bf 8aaa a5be bad4 e6be
00000240: 2b1c 19bf 2c2f 66bf 3a88 86be 9e6d babd
00000250: ceaf 80bf da66 62bf 7e4c 6dbf f402 89bf
00000260: 9b64 9cbe 8f3c 30bf 34c3 1c3d 6073 81bf
00000270: 6fd0 66bf 8a35 b2bd 1861 85bf 26eb 7cbf
00000280: 1163 56bf 4840 58bf ef79 b6be 8772 3ebf
00000290: 912a 2dbf 80e0 85bf 318b 21bf ffbb 8fbf
000002a0: 8f8b 3ebf 350f b7be a326 0cbf 7797 d7be
000002b0: 6830 31bf e2ca f7be e329 8dbf 2fae d1be
000002c0: 885d 7ebf 032c 96bf 0550 28bf 9619 0fbf
000002d0: 851f a83e 85de 8dbf c633 fcbd 00cb c8bf
000002e0: 9e4a 28bf bf1e 69be 0611 2cbf b3e9 42bf
000002f0: 464f 333f 29de dcbe af1f a2be 7f7f 62bf
00000300: a5b0 45bf 22c7 3ebf 4d14 61bf 489d fbbe
00000310: 883a 34be 4ff4 64bf 9fa8 a6bf d485 01bf
00000320: dce6 ddbd d1d5 f33d 5670 58bf f4e6 0cbf
00000330: d31c 71bf 3c86 8ebf f3ce 3bbf 1227 57bf
00000340: a035 4abf 9b0c 9d3d e975 11bf 0d74 00be
00000350: f049 46bf 6674 cebe 01c0 62bf 5f11 8cbf
00000360: 63bc 18bf 36b2 17bf 2cdd 32bf 577b 93bf
00000370: 38a4 0bbf 40b7 a4bf 5ac6 51bf cdaa 25bf
00000380: f0d5 5abf eee6 2cbf 7c85 81bf a300 09bf
00000390: 04e9 a3bf f717 9ebe ab13 a83d e9dd 35be
000003a0: dd9d b7be 26b1 57bf 507e 37bf b374 1ebf
000003b0: 8c5f 6a3e ffaa 15bf 583a a7bf 52ab 96bf
000003c0: 1cca 9abe 0331 86bf d8e9 6ebf fd57 5abf
000003d0: 34c1 eabd 1fe8 9cbf 0d01 dabe a9d5 153e
000003e0: d703 84bf d522 47bf 1a15 69bf ba83 19bf
000003f0: 8c0c 70bf a1cf afbe 1211 08bf f80c 69bf
-0.44455484 -0.2951152 -0.54830843 -0.6701633 0.25741318 -0.18004455 -0.15936409 -0.34900373
-0.85772 -0.16569245 -0.37996942 -1.194551 -0.8751784 -0.9534184 -0.5985418 -0.19068417
-0.8600212 -0.94243795 0.13872054 -0.99391013 -0.20969811 -0.9025208 -0.4871925 -0.83378714
-0.8778436 -0.24982873 -0.3168013 -1.070944 -1.1531866 -0.22076933 -0.33256787 -0.5027705
-0.5318664 -0.6941395 -0.97281533 -0.53872275 -0.6176377 -0.594165 -0.67557675 -0.36476848
-0.57061106 -0.384401 -0.6554371 -0.3519198 -0.33283287 -0.61035407 -1.0616935 -0.8651587
-0.6640325 0.13997577 0.06078831 -0.20236716 -0.8478445 -1.3356696 -0.8285693 -1.1236316
-0.8653636 -0.6261205 -0.7019778 0.078091055 -1.0345669 -0.66876453 -0.3075033 -0.63030684
-1.3985223 -0.75845087 -0.6514724 -0.1648627 -0.39645877 -0.4249797 -0.77735776 -0.8902466
-0.9765674 -0.62314874 -0.09236062 -0.5922519 -0.90178394 -0.32566816 -0.85181624 -0.58997023
0.19406772 -0.8228385 -1.1818681 -1.0362322 -0.30846563 -0.37602192 -0.30438763 -1.2789202
-0.38304865 -0.7153385 -1.0238057 -0.89347124 -0.6188065 -0.62870646 -1.1338853 -0.9733054
-0.16968833 -0.7324611 -0.9213747 0.60258913 -0.45237818 -1.2056245 -0.062353928 -0.19159107
-1.2634175 -0.55835634 -0.5242247 -0.24750184 -0.5841252 -0.4351379 -0.48006198 -0.11762718
-0.5184656 -0.15164612 -0.7440305 -0.6034581 -1.3896987 -0.3920434 -0.57859963 -1.0239094
-0.4116558 -0.21412909 0.31072623 -0.5799875 0.09217765 -1.1204352 -0.59256876 -0.82133365
-0.621579 -0.902725 -0.6013506 -1.0464135 0.95186013 -0.85416263 -0.35974312 -1.3144815
-0.76891935 -1.2674123 -0.7661264 -1.4453887 -1.0089746 -0.70809925 -0.32356673 -0.45084172
-0.59808606 -0.8991573 -0.26275808 -0.09102939 -1.0053651 -0.8843819 -0.9269484 -1.0704026
-0.30545506 -0.68842405 0.038272098 -1.0113335 -0.90161794 -0.08701618 -1.0420256 -0.9879631
-0.83744913 -0.84473085 -0.35639903 -0.74393505 -0.67643076 -1.0459137 -0.63103014 -1.1229247
-0.744317 -0.3575379 -0.54746455 -0.42107746 -0.6921449 -0.48396975 -1.1028408 -0.40953204
-0.9936147 -1.1732181 -0.657471 -0.55898416 0.32836547 -1.1083533 -0.123145625 -1.5686951
-0.65738857 -0.22765635 -0.67213476 -0.76137847 0.70042837 -0.43138245 -0.31664798 -0.88475794
-0.77222663 -0.745226 -0.879216 -0.49143434 -0.17600453 -0.89435285 -1.3020209 -0.5059483
-0.108350486 0.119060166 -0.8454641 -0.55039907 -0.9418461 -1.1134715 -0.73362654 -0.8404399
-0.78988075 0.0766842 -0.5682054 -0.1254427 -0.7745657 -0.4032318 -0.88574225 -1.0942801
-0.59662455 -0.59256303 -0.6986873 -1.1522015 -0.5454745 -1.2868423 -0.81943285 -0.64713746
-0.8548269 -0.6753987 -1.0118861 -0.53516597 -1.2805486 -0.3087766 0.08206876 -0.17760433
-0.35862628 -0.8425468 -0.7167711 -0.6189682 0.2288801 -0.58464044 -1.306468 -1.1771033
-0.30232322 -1.0483707 -0.9332557 -0.8529051 -0.11462632 -1.2258338 -0.42578927 0.14632286
-1.0313672 -0.77787524 -0.91047823 -0.59966624 -0.93769145 -0.34338096 -0.5315105 -0.91035414

fc2.weight f4 [256, 260]
00000000: 131f 9d3e 244d 7b3d 3c51 df3d 7c5a 713e
00000010: b7c1 eb3d b99f 073e aab4 4f3e db42 2ebf
00000020: 6eb4 74be 67f4 b23d 9e06 f7bc 5bbb 713e
00000030: 6ce2 573e 0eb0 863e 217a 433d d342 a3bd
00000040: c0e2 8abe 33b4 c33e 5985 bdbd 96eb af3d
00000050: 03dc c63d 2ce2 7cbc ceae 783e 9fab f1be
00000060: 39bc 033e 40b3 1ebf 5684 433d eb06 24bd
00000070: 2dc1 3f3e bf6b 533d 61bc 903b f932 df3e
00000080: 1c05 9b3e bb12 2d3e a11f d13e 2371 92be
00000090: df50 25be bd60 92bd 0f34 453d 431a 3d3d
000000a0: ff2c 23be 3e57 92bd 807c a53e 6105 e1bd
000000b0: 7f1b b33a ea7c cf3d f152 813e ce00 4fbe
000000c0: ba1a 613b 82e0 e83c 9582 6bc0 6a4b 7c3d
000000d0: 3e07 22be 540e a4be 40e6 18be 1203 7e3e
000000e0: 7b5b 41be 6456 99be de71 853e c514 1fbe
000000f0: 59ff 48c0 3cca 5c3f fff9 7a3e ac4e d83e
00000100: 2e82 963d f326 11be e749 1bbe 801f 64be
00000110: 588e cabd f08c 373e 2a03 f13d be35 263d
00000120: efad 40be 94a5 903e 6450 2dbd f501 afbd
00000130: 3b54 8ebd 14ca f23d 56cf d13c bb7d 8bbe
00000140: 7a67 41be 1b7c a13d 19e8 edbd 9994 353e
00000150: bfbf 84bf 1c4c 3ebe 0796 5abe 3fe6 9f3e
00000160: aaa7 293e 6722 803e 52d4 89bd 49ac c63d
00000170: aaae 9cbe b0c1 cfbd 969d b2be dce7 c83d
00000180: a67b d6bd a3f0 71be 740b cabd 92fc 413e
00000190: 07bf 79be 0fa7 98be e432 363e 38e9 c63d
000001a0: cd44 87be 57bd 9d3d 6ea5 003f 1107 a0be
000001b0: 32f7 16bd b0c9 5a3e 4420 1f3d de9e 9c3d
000001c0: 8bbf 97bd 2ebc b0be f999 12bf 0655 cebe
000001d0: f018 29be 6128 3bbe c159 0abe e921 b43d
000001e0: 7787 0f3e 0b17 663d 8e9a d0bd ff25 293e
000001f0: e946 623c b3f3 f9bd 54ce b1bf 6a1c 1ebe
00000200: da7b 03bf 9f23 babd d55c 403d a963 4e3e
00000210: f098 353d d62a f5bd 4d65 92bd 00d1 73bd
00000220: 3e05 46be 2072 693e 8518 243d 246e a13d
00000230: b515 e3bd f86c 5bbf 46af 6ebd 589d 2e3c
00000240: 3db8 2abf 7868 e93e ca29 0b3d f245 6cbc
00000250: 622a 0b3e bb1b fa3d 7326 273f 6762 85be
00000260: 8b6a 30be cb4c 4f3e c442 f1bd 82c7 a53b
00000270: d876 43bc 1156 5c3e 27c8 68bb a67b 89be
00000280: 8687 cfbd 4692 43bd 252e f3bd c076 4dbe
00000290: a596 553b 62d0 4e3c 5131 15bf d493 843e
000002a0: a133 3abe 1188 3fbe 9413 b0be 54c6 4abe
000002b0: e64c 243e 7b8b 6f3d 2de9 a6bc 5693 9c3d
000002c0: e18f 8fbd 8aff 8c3e 0214 25bd 10b1 613e
000002d0: 0a7c d4be 0de5 43bc 55ab 33bf 5627 06bd
000002e0: 7467 a9be 2393 45be 4d2c fdbd fc7e 02bd
000002f0: ca6c 353e b4cc 3e3e 63f3 a7bd 298a eb3c
00000300: ed6a 123e 5a22 53be 4f8c 1abd 463e 18be
00000310: a1e3 d03d 3b6e 7ebe bfa1 e8bd 190b aebf
00000320: 4ed7 b2bc b05f 9d3e d87f 733e 4ba3 5ac0
00000330: de9b eabe 9ac2 c73d 5e01 8c3e 38f2 71be
00000340: c44d 8f3c db78 753d 7429 84be 7a36 0c3f
00000350: 932e 7e3e f9e7 00bd b98e 40bd e957 8ebf
00000360: 6807 9cbe cdc1 a5be 8163 853d b4b8 e8be
00000370: b2d1 20be 6e9d 5d3e 9ba1 8e3e dc52 553e
00000380: 1799 84bd 7179 a53e 69fd 8a3e 80e9 85bd
00000390: 940a b13e dca2 6f3e a162 38be afc0 8cbd
000003a0: 51c1 04be afc8 3a3e a44f bdbd 62f9 c7bd
000003b0: 9e43 1c3e eff7 1abe 23de 013f 8ddc b5bc
000003c0: 7023 4f3e 8230 fb3d 8d4b 9bbd 1e9f 38be
000003d0: 65e9 d83d 7d44 0dbd 78aa 2cbd f0c3 13bf
000003e0: c069 ac3a e46c 303b ddc1 e93e c9b1 2e3d
000003f0: 8f7f d33d e69d e6bd d673 d5bd 6764 8dbc
0.3068777 0.061352864 0.10904166 0.23569673 0.115115575 0.13244523 0.20283762 -0.68070763
-0.23896953 0.08738022 -0.030154523 0.23606627 0.21082467 0.26306194 0.047723893 -0.0797173
-0.27126122 0.3822342 -0.0925395 0.08589856 0.09709933 -0.015434783 0.24285433 -0.4720125
0.1286477 -0.61992264 0.047733627 -0.04004566 0.18726034 0.051616427 0.0044169878 0.43593577
0.30277336 0.16901676 0.40844443 -0.2860194 -0.16144131 -0.071473576 0.04814535 0.046167623
-0.15935133 -0.071455464 0.32321548 -0.10987354 0.0013664811 0.10131247 0.25258592 -0.2021515
0.0034348206 0.028427366 -3.679845 0.061595358 -0.15823075 -0.32042181 -0.14931583 0.24805859
-0.18882553 -0.29948723 0.26063436 -0.15535267 -3.1405852 0.86246085 0.24509428 0.42247522
0.073490486 -0.14175014 -0.1516491 -0.22277641 -0.09890431 0.17924857 0.117681816 0.040578596
-0.1881635 0.28251326 -0.042312995 -0.08545295 -0.069496594 0.118549496 0.02561156 -0.27244362
-0.1888713 0.07884999 -0.11616535 0.17732467 -1.0371016 -0.18583721 -0.21346293 0.3123035
0.16567865 0.25026247 -0.0672995 0.097008295 -0.30602008 -0.10144365 -0.34885854 0.09809849
-0.10472803 -0.23626952 -0.09865466 0.18944004 -0.24389277 -0.29814956 0.1779285 0.09712452
-0.26419678 0.07702129 0.50252426 -0.3125539 -0.036856838 0.21366 0.03884913 0.07647489
-0.07409581 -0.3451857 -0.57266194 -0.40299243 -0.16513419 -0.18277122 -0.13510801 0.0879553
0.1401652 0.05617432 -0.10185729 0.165184 0.013810852 -0.12204685 -1.3891091 -0.15440527
-0.5136086 -0.090888254 0.04696353 0.20155205 0.044335306 -0.11971061 -0.07148228 -0.05952549
-0.19337937 0.22797441 0.040062446 0.07882336 -0.11088125 -0.8571315 -0.058272623 0.010657631
-0.66687375 0.45587516 0.0339754 -0.014420973 0.13590387 0.122123204 0.65293044 -0.26051638
-0.17228143 0.20244138 -0.11780313 0.0050591836 -0.01193019 0.21517207 -0.003551969 -0.2685215
-0.10133271 -0.04774692 -0.11874036 -0.20064831 0.0032591012 0.0126229245 -0.58278376 0.25894034
-0.18183757 -0.18704249 -0.34389937 -0.19802219 0.1604496 0.05848263 -0.020374859 0.076452896
-0.070098646 0.2753871 -0.040302284 0.220402 -0.41500884 -0.011956465 -0.70183307 -0.032752357
-0.3308674 -0.1929441 -0.12361965 -0.031859383 0.17717281 0.18632776 -0.08200719 0.028752403
0.14298601 -0.20618573 -0.037731465 -0.14867505 0.10199667 -0.24846737 -0.113589756 -1.3597137
-0.02183118 0.30737066 0.23779237 -3.4162166 -0.45822042 0.09753914 0.27344793 -0.23627555
0.017493136 0.05992971 -0.25812876 0.54770625 0.24822454 -0.031471226 -0.04701111 -1.1120578
-0.304744 -0.3237442 0.065131195 -0.45453417 -0.15704992 0.21642086 0.2785767 0.2083239
-0.06474512 0.32319215 0.27146462 -0.06538677 0.34578383 0.2340197 -0.18006374 -0.06872689
-0.1296437 0.18240617 -0.09243706 -0.09764363 0.15260169 -0.15133642 0.5072958 -0.022199893
0.20228362 0.122651115 -0.075827695 -0.18029448 0.105913915 -0.034489144 -0.04215476 -0.5772085
0.0013154075 0.0026920373 0.45655718 0.042650018 0.10327064 -0.112605855 -0.104224846 -0.01725979

fc2.bias f4 [256]
00000000: baa6 503f 08f0 85bd a482 92bd d48f 82bb
00000010: 64be 1abf b15e 813f b26e 37bd 35cd 84bd
00000020: 398f f4bd 4a6c 04be e9ee a0bc 3d88 b5bd
00000030: 599f 59be b6c0 873e 5d66 30bf 6b8c f13e
00000040: 964c ecbc 2445 7cbd b852 dbbd 6ecb 4cbd
00000050: afc2 22be ce72 6f3f c05a 68bc 653f 383f
00000060: cbc8 0cbe 995e 06bd 80c4 1dbe 1f09 8cbc
00000070: d577 b2bd 4d8d cc3c 7de7 94bd 534a 9fbc
00000080: 69f5 983f e3b9 0dbd d056 a3bc 3708 aa3a
00000090: dfa2 27bd 58e5 93bd 72d6 9fbd 76c4 abbd
000000a0: d948 c4bd b771 edbd 0284 febd 3d61 98bd
000000b0: 734c b9bd 51f6 3a3f 7486 78bd e292 92bd
000000c0: f2ba 393f 0dda 0cbe 26c9 7bbd 7b16 69bc
000000d0: 3ffc 293f 2115 683f a376 603c 1fb8 3bbd
000000e0: fb8b 8dbd 1a81 8fbe 8779 32bd 3e73 49bd
000000f0: 4925 b0bc 87b2 463f 83e2 9abd 6f4c d7bd
00000100: 03f1 22bf 23cd 0fbd c7ae 13bd 1964 fabd
00000110: fb9d 1b3f f62c 75bb 1c45 88bd 299e b93e
00000120: 0734 5ebf 69a7 d4be d196 6d3f 0a92 b2bd
00000130: 4a9d ebbd 864e b3bc a1ce 19bf 4968 10bf
00000140: 6333 35bd acbb 623f 2817 a7bd dc85 f93e
00000150: d89b 563f 3652 683f 77b2 63be 6df2 8abd
00000160: e177 553f bf82 453f c290 82bd 370c cdbd
00000170: 96f1 34bd 0258 5bbf d56c ce3b f908 9bbd
00000180: a7df a2bd 5d9d 2c3f a0c0 583f 514a 413f
00000190: 6231 1ebd 8d4e 453f bf8d a0bd 2053 b7bd
000001a0: 327b e8bd 0e8d 07bc 6818 99bd 25d2 2ebf
000001b0: 3f84 c3bd e256 013f 2185 99bd 6e6e 4fbd
000001c0: 9ff8 2e3f 5b37 85bd 731d 56be 418d d0bc
000001d0: 2ada c9bd cdd5 99bd f4ac 43be 3ee7 5bbd
000001e0: 09fa dbbc 438a bcbd 8cd1 75bd 6d48 63bd
000001f0: 4059 25bf cda1 e1bd 2cfd 02bd db5a 693f
00000200: 8062 d43f 41c0 93bb e303 2e3f cd02 b0bd
00000210: d950 1cbf bae2 f4bc c7b0 89bd 8d5f 033f
00000220: 22a1 9abd f763 57bf ba8b 02bd 4608 0ebe
00000230: 158c e2bd f111 05be 266a 14be da7b b9bd
00000240: c30c 12be 4a0b aebc 8f76 dcbd f1a3 183f
00000250: 6c6b 43bf 67b0 eebd 86c3 0d3f 8769 02be
00000260: a840 c3be cedd cbbd aec3 a2be 0c9c f0bd
00000270: db3f 67bb dee8 06be 4116 b0bd f6dd 89bf
00000280: 2256 633f 2795 84bf 4117 e8bd 0a7c 81bd
00000290: 18f4 7ebd 2f4a 32bf 0c4f 6e3f 709a cfbd
000002a0: 4790 1ebe d811 01be 0e98 cebe 55ee d5be
000002b0: 8221 48bd 0e26 a7bd ab51 a2bd 1f28 aa3f
000002c0: 05c5 8dbd 7e4e eebd 412d 4dbe 1361 83bd
000002d0: f5d9 743f 710b 1dbd 4a23 2dbe fae7 dbbd
000002e0: bce6 21bd 2d6a 973f adad 7ebd 97e6 45bd
000002f0: 8056 1bbd 264f 903f 7f03 e6bd a17f a5bc
00000300: c3fb 773f 30b2 e6bd 689c 3f3f 6202 91be
00000310: ce37 d5bd 4302 343c aafb 8abd 6f46 c3bc
00000320: 5f4d 36bd d4b9 5e3f ac3d 42bd 5fc5 dbbd
00000330: f79f a3bc b45d 0d3f 72f0 c7bd f6ea 5abd
00000340: 403d 9fbd 0094 123f a635 4bbb be26 5e3f
00000350: fe7b 26bd f2b6 523f 86a7 93bd 1cc6 8b3f
00000360: 619c 62bd 7b0f 08be 9ce4 ecbd ab94 90bc
00000370: 99e6 abbd 3d72 c9bc af4e 1c3f cfc0 b7bd
00000380: 3e53 aabe 26e2 d9bc 439f aabd 9568 3bbd
00000390: 6b57 d3bd 79a6 fcbd 689d 2c3e 0d53 e4bd
000003a0: 7d5e 59bf 3e1d 72bd d487 aebd 731e f6bd
000003b0: 347b 19bf c899 d7bd 21b4 74bf 4113 7dbf
000003c0: 3d32 dcbc c904 4dbd c560 7bbd a21a 9f3f
000003d0: 6e66 debd be94 72bd 0af7 5fbd fa30 07bd
000003e0: d820 273f bd14 ddbd ae7e dc3f 591d acbd
000003f0: 1934 9cbc 319e 46bd a463 3bbe 6705 283c
0.81504405 -0.06539923 -0.07153824 -0.003984431 -0.60446763 1.0107023 -0.0447833 -0.06484453
-0.1194138 -0.12931934 -0.019645171 -0.08863876 -0.21252193 0.26514214 -0.68906194 0.47177443
-0.028845113 -0.061589375 -0.10709137 -0.049998693 -0.15894578 0.93534553 -0.014181793 0.7197173
-0.13748471 -0.03280506 -0.1540699 -0.017094193 -0.087142624 0.024969721 -0.072707154 -0.01944462
1.1949893 -0.034601104 -0.019938856 0.0012972419 -0.04092681 -0.07221478 -0.07804574 -0.08387081
-0.09584207 -0.11593955 -0.12427522 -0.07440422 -0.09047785 0.730321 -0.0606751 -0.07156922
0.7255088 -0.13755055 -0.061471127 -0.014226551 0.6640052 0.9065724 0.01370016 -0.04582989
-0.06911465 -0.28028184 -0.04357293 -0.04918217 -0.021502154 0.7761616 -0.07562735 -0.105126254
-0.63649005 -0.035107743 -0.036055353 -0.12226123 0.60787934 -0.0037410832 -0.066538066 0.3625348
-0.8679814 -0.41533974 0.9280825 -0.08719261 -0.1150461 -0.021888029 -0.60080916 -0.56409127
-0.04423846 0.88567615 -0.081587136 0.4873494 0.8383155 0.90750444 -0.22236048 -0.0678452
0.83386046 0.7715263 -0.063752666 -0.100120954 -0.044175707 -0.85681164 0.006299595 -0.07570071
-0.079528145 0.6742762 0.8466892 0.7550402 -0.038621314 0.77072984 -0.07839536 -0.08951402
-0.11351623 -0.008273376 -0.07475358 -0.68289405 -0.09546708 0.505232 -0.074960954 -0.050642423
0.68348116 -0.06504699 -0.20909671 -0.02545798 -0.098560646 -0.075114824 -0.19108945 -0.053687327
-0.026852624 -0.09206059 -0.060014293 -0.055488992 -0.6458931 -0.11017189 -0.031979725 0.9115426
1.659256 -0.0045090024 0.6797468 -0.08594284 -0.61060864 -0.029893268 -0.06723171 0.51317674
-0.07550265 -0.8413691 -0.031871535 -0.13870344 -0.11061875 -0.12995125 -0.14493617 -0.09056826
-0.1426268 -0.021245617 -0.10764801 0.59625155 -0.7633579 -0.1165474 0.5537647 -0.12735568
-0.38135266 -0.09954415 -0.31789917 -0.117485136 -0.0035285864 -0.1317477 -0.085979946 -1.0770862
0.88803303 -1.0358018 -0.1133256 -0.06322487 -0.062244505 -0.69644445 0.93089366 -0.101368785
-0.15484725 -0.12604463 -0.40350384 -0.41783395 -0.04886008 -0.08161555 -0.07925733 1.3293494
-0.06922344 -0.11636065 -0.20036794 -0.06415 0.95645076 -0.03834099 -0.16907993 -0.107376054
-0.039526686 1.1829277 -0.06217735 -0.04831561 -0.03792429 1.1274154 -0.112311356 -0.02020246
0.9686853 -0.11264455 0.7484803 -0.2832213 -0.104110345 0.010986867 -0.06786282 -0.023837296
-0.04450738 0.870023 -0.047422096 -0.10731005 -0.019973738 0.55221105 -0.09762658 -0.053446732
-0.077753544 0.5725708 -0.0031007319 0.86777866 -0.040645592 0.823104 -0.07209687 1.0919833
-0.055324916 -0.13287155 -0.11567041 -0.017649015 -0.083935924 -0.024590606 0.6105756 -0.08972322
-0.33266634 -0.026597094 -0.08331158 -0.045754034 -0.10319408 -0.1233644 0.1685692 -0.11148653
-0.849098 -0.05910992 -0.08522001 -0.120175265 -0.5995362 -0.10527378 -0.95587355 -0.98857504
-0.026879424 -0.05005339 -0.061371583 1.2430003 -0.10859381 -0.059223883 -0.054678954 -0.033005692
0.6528449 -0.10794971 1.722616 -0.08404035 -0.01906781 -0.048490707 -0.18299729 0.010255194

fc3.weight f4 [1, 256]
00000000: bab3 643d e5a4 c6bb 6787 843b 9794 05bc
00000010: e3c3 5dbc f99a 263d d105 0f3c efa5 9f3b
00000020: 5046 723b 4cc8 a13b f753 0c3c 0573 d13c
00000030: f4a7 82bd ce47 e03c 06d7 acbc bae1 a73c
00000040: 6637 b63c a3c3 ce3c 1522 0eba 6b10 c4bb
00000050: d63e 72bc d38b 663d f1e1 c6bc 6d11 853c
00000060: 3d89 163b f62b db3b cce9 18bc 1fa7 04bb
00000070: c9db 0f3d 3564 a33c 9707 543c bba0 ebbc
00000080: c1ed a03d f6d8 01bb 7b64 15bb 4dcc ae3b
00000090: 5792 d3bc 2f67 42ba 67ad 083c 09ac 9fbc
000000a0: 8f02 bcba 3eaa 2f3c 79e0 85bb 3e59 b9bc
000000b0: 4f40 94bc 421f b73c 90de 83bb d74b 1f3b
000000c0: 091f 233d d14f 13bc 860e 1dbb 6cd3 c5bc
000000d0: f5bd 883c 9c9e c93c dfc1 f43c 345f 84bc
000000e0: 2fa9 43ba 78f1 38bc 6039 423b 7970 a4bc
000000f0: 299d da3c 9615 3d3d 7e8c 27bc aa32 bc3c
00000100: 793c abbc 7b08 a73c cc5f 10bc f139 00bd
00000110: abf7 263c 687c 03bd 09db 883b 0cb1 ac3c
00000120: f1c6 c2bc cfd1 d5bc a174 db3c 1dfc fa3b
00000130: b546 78bc 6a65 6cbc 56f2 91bd a750 fbbc
00000140: 6040 c33a 91f0 0a3d d9df 8cbc 715a d73c
00000150: c074 cd3c fbbb 053d 2ab8 ffbd 4900 d7bc
00000160: d4b7 d53c bab2 883c 22ce 933a 0511 7dbc
00000170: 1495 953b 061c 6abc 6952 42bb 1cd2 93bc
00000180: 6ac5 3abd 412e da3c 2cfe a93c 8fb1 1e3d
00000190: 23e1 463c a167 2e3d 9539 bd3c 7d7a 00b9
000001a0: 63cc d7bb aa90 f33b 892c a5bc 000d acbc
000001b0: ca4e 4ebc b1df bf3c 954f 3abc 6c2b 9fba
000001c0: a345 e93c ae74 22bc 29dd 09bd 8954 4f3a
000001d0: 901a b23c 2683 203b ac13 d3bd a7f9 eb3a
000001e0: a3cc 673c e5b2 10bc d955 54bc b837 64bb
000001f0: 1b58 3dbd 44ac b7ba dae8 263c 9543 cc3c
00000200: ea64 183e a45a ad3b 44cf cd3c 2cc0 7cbc
00000210: d520 f5bc 94b8 5c3a 441a b6bb e14a 2b3d
00000220: b558 aebc 51f2 a9bc 20c7 dc3c 43bc 0abd
00000230: a4a6 45bd 873f fabb edcd 8d3c bd51 9cbc
00000240: d0e7 b2bc cac9 933b cb28 13bc b9d1 c83c
00000250: 1557 adbb 2b1a 19bc eba9 2f3d 2675 0dbc
00000260: fb0f 7fbd d571 5f3c 6506 25bd 8bd2 783b
00000270: 13e0 ff3b 6866 1a3c 246b afbb 8f24 b8bc
00000280: 2478 a33c 29d2 c0bc 2b47 86bc c044 b83b
00000290: 6163 b1bc 790b 55bd 3151 e23c 929b d73b
000002a0: d717 953c 45c3 473c c448 8abd c9ee 19bd
000002b0: 3f0b 21ba 528a 3e3c 1be9 873c bec1 243d
000002c0: 38c7 383d cdf6 123c 12f0 d1bb f9d3 313b
000002d0: e014 e43c f92f 43bc c243 2ebb 6c95 7eba
000002e0: cea7 a2bb ce69 593d 8a97 ab3c 42e7 b33c
000002f0: edac 63bc 46d6 a63c 7e3c e93a cc41 6a3b
00000300: 3e1d e43c 3e46 64bc a4f7 a33c 7282 46bc
00000310: 7653 2c3b aa33 3dbc 7cc3 8cba 7af9 4fbc
00000320: 5a93 df3c e710 d83c e451 513c 50d9 303c
00000330: 942f 873b 59e3 113d efc8 233c 33c5 26bd
00000340: 9804 6cbc b9ee f73c fa61 89bb 24b6 383d
00000350: a695 803c 6077 c33c d05a f73c bd92 1d3d
00000360: 5465 09bc 65be ae3c a7fd 703c e64b 983c
00000370: a8de 803c 5ee1 c9bc 6e91 a93c 07ff cebc
00000380: 1ab2 12bd 3be8 a6ba f483 aabb d2d9 7fbb
00000390: e810 023b 26b0 90bc 3f4c 8b3d b1aa 7b3c
000003a0: 84c2 1fbd d7b3 063b 6e8e 1bbb 01e4 27bd
000003b0: c812 05bd 776c 993c 8867 19bd bbd5 81bd
000003c0: 81b6 4aba 8943 bebc 0031 623c 7e23 323d
000003d0: e46b d5ba 81af a5bc e1d9 e3ba fafd 02bc
000003e0: 0150 1f3d c9a9 c23c fd49 c33d 7338 66bc
000003f0: 5e2c 133c 3aa5 fa3b 9c1b 67b9 f676 473a
0.055835463 -0.0060621374 0.0040444615 -0.008153102 -0.013535473 0.040675137 0.008729414 0.0048720757
0.003696818 0.0049372073 0.008564941 0.02556754 -0.06379691 0.02737799 -0.021098625 0.020493377
0.022243213 0.025239771 -0.0005421949 -0.0059834025 -0.014785489 0.05628569 -0.02427766 0.01624366
0.0022969984 0.00668859 -0.009333085 -0.0020241213 0.035121713 0.019945243 0.012941263 -0.028763166
0.07857848 -0.0019813157 -0.0022795487 0.005334413 -0.025826616 -0.0007415888 0.008342124 -0.019491212
-0.0014344024 0.010721741 -0.004085597 -0.022625562 -0.018097071 0.022353772 -0.0040243343 0.0024306679
0.03982452 -0.008991198 -0.0023964955 -0.024148665 0.016692141 0.024611764 0.029877601 -0.016158678
-0.000746387 -0.011288039 0.002963625 -0.020073162 0.026686268 0.046163164 -0.010226367 0.022973377
-0.020902859 0.020389786 -0.008811902 -0.031305257 0.010190885 -0.032101065 0.0041765017 0.021080516
-0.023776503 -0.026101021 0.026789011 0.007659449 -0.015153577 -0.014428476 -0.071263 -0.030678106
0.0014896505 0.03392083 -0.017196583 0.026288243 0.025080085 0.032649975 -0.124862984 -0.026245253
0.026088633 0.016686786 0.0011276642 -0.015445952 0.0045648906 -0.014288908 -0.002965117 -0.018044524
-0.045598425 0.026633384 0.020751081 0.03874355 0.012138638 0.042579297 0.023098746 -0.00012252662
-0.006585644 0.007433017 -0.020162838 -0.021002293 -0.012592027 0.023422094 -0.011371513 -0.0012143678
0.028475588 -0.009915514 -0.03365818 0.000790902 0.021741182 0.0024492233 -0.103064865 0.0018003479
0.01414791 -0.008831714 -0.012959921 -0.003482325 -0.046226602 -0.0014013131 0.010187352 0.02493457
0.14882246 0.005290346 0.025123246 -0.015426677 -0.029922882 0.0008419838 -0.0055573303 0.041819457
-0.021282533 -0.020745428 0.026950419 -0.033870947 -0.048254624 -0.0076369676 0.017310107 -0.019081945
-0.021839052 0.004510139 -0.008981894 0.024514066 -0.005289922 -0.009344618 0.042886656 -0.008633887
-0.0622711 0.0136379795 -0.0402893 0.003796729 0.007808694 0.00942383 -0.0053533483 -0.02247837
0.019954748 -0.023537712 -0.016391357 0.00562343 -0.021653833 -0.052012894 0.027626606 0.0065798247
0.018199844 0.012192552 -0.0675216 -0.03758124 -0.00061433384 0.011629658 0.016590646 0.04022383
0.045111865 0.008969975 -0.0064067924 0.0027134402 0.027841985 -0.011913293 -0.002659068 -0.00097115966
-0.0049638515 0.05307942 0.020946283 0.021960858 -0.013896209 0.020365845 0.0017794517 0.0035744784
0.027845975 -0.013932763 0.020015545 -0.0121160615 0.0026294864 -0.011547962 -0.0010739411 -0.012693757
0.027291942 0.026375247 0.012775872 0.010793999 0.004125545 0.035617206 0.009996637 -0.040715408
-0.014405392 0.030265199 -0.004192588 0.045095578 0.015696358 0.023860633 0.03019467 0.03847002
-0.008385975 0.021331022 0.014708913 0.018590879 0.01573117 -0.024643596 0.02069923 -0.02526809
-0.035814382 -0.0012734005 -0.0052037183 -0.0039039743 0.0019846503 -0.01766212 0.06801652 0.01536052
-0.039003864 0.002055397 -0.0023736018 -0.040988926 -0.032488614 0.018728478 -0.03745225 -0.06339594
-0.00077328837 -0.023225563 0.013805628 0.04349088 -0.0016282764 -0.020225288 -0.0017383659 -0.007995123
0.038894657 0.0237626 0.095355965 -0.0140515445 0.008982746 0.007649091 -0.00022040162 0.0007608974

bn1.weight f4 [256]
00000000: ac8c 563e 3451 373f 60ab e03e db65 663f
00000010: f19b 1c3f a87d 3d3f d24b cf3e 50eb 173e
00000020: e3b0 0f3f d4b1 8e3e 1a70 2e3f 7c64 4a3f
00000030: 4a8c a63e c0d6 1a3f 4289 a33e ba51 3e3f
00000040: 010a 7a3f 3844 ff3e 780d 143f 1db0 1c3f
00000050: 589e 163e 80bb 753f bd8a 5a3f f0b9 2d3f
00000060: 2b88 003f 6f53 7a3f 741a 623e 3238 753f
00000070: 5209 133f f4a1 683f 10f1 013d d185 293f
00000080: 1085 7c3d a923 2f3f eea7 0f3f 25ab 1d3f
00000090: 7c19 e83e 133f 223f f035 213e fac2 453f
000000a0: 10d0 3f3e 81a0 083f da3d cc3e d7d7 223f
000000b0: 4fcf 303f 0430 c03e 4fad 5e3f 6816 fd3d
000000c0: d4df 033e 0909 633f e74b 023f f986 5c3f
000000d0: 99a0 133f 0af5 153f 1b01 173f a47a e03e
000000e0: 2888 0a3e a8db d33e d4dc 693e 8073 403e
000000f0: 30ea 523f d040 643e b971 173f a0f0 3d3f
00000100: a676 453f f4ec 7d3f 9055 593f 9c9f 4c3e
00000110: e0c7 cb3c 5098 103e 6ac7 473f 24f4 263e
00000120: 1370 653f ebc3 1d3f 08da 673f 3376 283f
00000130: ca03 c03e 941d 7f3f e00f 5d3f eb49 393f
00000140: 08e8 263f b814 d23d a190 073f 1032 563f
00000150: 4448 9c3e d86d 793f 35f7 563f ca78 1a3f
00000160: be0e e43e 187e e73d 0ebf 903e fc11 9e3e
00000170: f17b 363f 3e26 8b3e e0e8 e33c c3cf 6d3f
00000180: 5184 623f f5df 253f 5073 433e 7833 d63e
00000190: a0fa 8f3d 1434 0c3e 4c6b 473f 54f2 003e
000001a0: 7e72 3a3f 0d65 2d3f 6bdd 3a3f 0884 113f
000001b0: b968 183f 04be b93e 94e1 2a3e 701b d03e
000001c0: 330d 743f 38a0 dd3d 06f2 a83e 80af 283e
000001d0: 84a4 e63e 0716 383f af07 613f 002f 113c
000001e0: 4dc9 143f f517 703f a406 813e a03c ca3e
000001f0: 67c9 063f a997 0e3f 6021 843e f51d 7a3f
00000200: ccf0 c13e 0b39 7c3f 3e88 a43e f999 6b3f
00000210: 4750 1a3f 8c0e 6c3f 00b5 4b3e 94df 633f
00000220: 943f 5a3f ab0a 323f f04d 1a3f fc7b 923e
00000230: 6c8a 7a3f 0068 0a3b 5078 cb3e b08d 023f
00000240: 1513 183f 5a89 4b3f 33dc 263f bc36 203f
00000250: 0116 4a3f d4c6 023f 7be7 6f3f 2adf 713f
00000260: c2fc 313f 4e6f b53e 28a0 f03e 8890 893d
00000270: f81d 013e c615 ca3e 3a61 763f 1201 8b3e
00000280: cf06 293f 80aa 5d3f 9c1b 513f b859 d43e
00000290: d0fd ba3e 0fc4 573f 00ef 753c e412 9f3e
000002a0: acdb d83e 8497 f93e 70da 7f3e e20b 263f
000002b0: c34a 5b3f d29b 853e 0747 423f cba1 643f
000002c0: 0ab4 493f be37 933e 85cc 6c3f c134 043f
000002d0: 182b 293e ac95 263e f0e1 633f 3187 183f
000002e0: 833c 123f ce99 ae3e 5c28 da3e f547 333f
000002f0: 5825 aa3d 4cb4 443e 60ed 5f3d d656 b73e
00000300: b5f2 273f 468e 073f 3a20 5a3f 2586 753f
00000310: 4c7a 2c3f cb76 553f 901e 4b3e 4cee 4a3f
00000320: 2a02 ff3e 82e7 e13e e8f6 d13d 08d4 7a3f
00000330: 8ba3 6c3f 408b 9b3c e431 2f3f 8c21 e33e
00000340: 4018 273f afc4 173f 4053 933e 0a53 413f
00000350: 925e db3e 0004 2b3f 29bc 423f 13d7 283f
00000360: 261c 693f 2cae 8f3e 9a89 f13e 6ffe 183f
00000370: 2ae8 b23e 883e 583f a88b c73d 5c51 513f
00000380: ee45 cf3e f29f 6d3f 20b6 963d 88c9 9f3d
00000390: 322a 723f bcec 193f 585c 413f 401f 873d
000003a0: d0bb af3e 18d2 a33e 00ee d03b 92e3 833e
000003b0: aae0 633f 2055 7e3d 4072 223d dfaf 3f3f
000003c0: e0f3 553f b87c 393f e824 ed3e c46f 483e
000003d0: de60 2d3f 203e b33e 0f69 093f 7a64 823e
000003e0: 88af f93d 2069 173e e8ce 723e 3495 3b3e
000003f0: 14a3 5c3f d59f 3f3f 9ac9 5c3f fb4a 763f
0.209521 0.7160828 0.4388075 0.8999917 0.6117545 0.7401986 0.40487534 0.14835858
0.5612928 0.27870047 0.68139803 0.79059577 0.32528907 0.6048393 0.31940657 0.74343455
0.97671515 0.49856734 0.5783305 0.6120623 0.14708841 0.9598923 0.8536795 0.67861843
0.50207776 0.9778356 0.22080404 0.9578887 0.57436097 0.9087212 0.031724036 0.6621981
0.061650336 0.6841379 0.56115615 0.6158927 0.45331943 0.63377494 0.15743232 0.77250636
0.18731713 0.5336991 0.3989094 0.63610595 0.6906633 0.37536633 0.869832 0.12357789
0.12878352 0.8868566 0.5089707 0.8614345 0.5766693 0.58577025 0.5898606 0.43843567
0.13528502 0.41378522 0.22838145 0.1879406 0.8238859 0.22290349 0.591579 0.7419529
0.7713417 0.99189687 0.84896183 0.19982761 0.024875581 0.14120603 0.78038657 0.1630407
0.89624137 0.6162707 0.90567064 0.6580536 0.3750289 0.9965451 0.8635235 0.72378415
0.651978 0.10257858 0.5295506 0.8367014 0.30523884 0.97433233 0.8397096 0.6034056
0.44542497 0.11303347 0.28270763 0.30873096 0.7128287 0.27177614 0.027821004 0.92895144
0.8848315 0.64794856 0.19086957 0.41836143 0.07030225 0.13691741 0.778981 0.12592441
0.7283095 0.67732316 0.72994107 0.5684209 0.59534794 0.36277783 0.16687614 0.40645933
0.9533264 0.10821575 0.3299715 0.16473198 0.4504739 0.7190861 0.8790235 0.008861303
0.5811966 0.93786556 0.2520038 0.39499378 0.52651066 0.55700165 0.25806713 0.9770196
0.37879026 0.9852454 0.32135195 0.9203182 0.60278744 0.92209697 0.19893265 0.8901303
0.8525326 0.6954753 0.60275173 0.28610218 0.97867465 0.0021119118 0.3974023 0.5099745
0.59404117 0.79506457 0.6517975 0.6258352 0.78939825 0.5108464 0.93712586 0.94481146
0.695263 0.3543648 0.4699719 0.0671702 0.12609088 0.39469737 0.96242106 0.27149254
0.66026014 0.8658829 0.81682754 0.414747 0.3652177 0.84283537 0.015010595 0.310691
0.42355096 0.4874841 0.24985671 0.6486188 0.8566095 0.26095444 0.7588963 0.89309376
0.7879034 0.28753465 0.9249957 0.51642996 0.16520345 0.16268033 0.8901663 0.59581286
0.57123584 0.3410172 0.42608917 0.7003167 0.08307904 0.19209403 0.054669738 0.35808438
0.65604717 0.5295147 0.85205424 0.95907813 0.6737411 0.8338439 0.19835877 0.7926986
0.4980634 0.4412194 0.10252172 0.97979784 0.92437047 0.018987298 0.684355 0.44361532
0.6527138 0.5928449 0.28774452 0.7551733 0.4284559 0.6680298 0.7606836 0.6595318
0.91058576 0.2806257 0.47175294 0.59763235 0.34942752 0.84470415 0.09743434 0.8176477
0.4048304 0.9282218 0.07358956 0.07802111 0.94595635 0.60126853 0.7553153 0.06597757
0.34322977 0.31996226 0.006376028 0.2575956 0.89014685 0.0620929 0.03965974 0.74877733
0.8357525 0.7245593 0.4631722 0.19573885 0.6772593 0.35008335 0.5367593 0.25467283
0.12191683 0.14786196 0.23711741 0.18318635 0.8618634 0.7485326 0.8624512 0.9620816

bn1.bias f4 [256]
00000000: 0000 0000 0000 0000 0000 0000 0000 0000
00000010: 0000 0000 0000 0000 0000 0000 0000 0000
00000020: 0000 0000 0000 0000 0000 0000 0000 0000
00000030: 0000 0000 0000 0000 0000 0000 0000 0000
00000040: 0000 0000 0000 0000 0000 0000 0000 0000
00000050: 0000 0000 0000 0000 0000 0000 0000 0000
00000060: 0000 0000 0000 0000 0000 0000 0000 0000
00000070: 0000 0000 0000 0000 0000 0000 0000 0000
00000080: 0000 0000 0000 0000 0000 0000 0000 0000
00000090: 0000 0000 0000 0000 0000 0000 0000 0000
000000a0: 0000 0000 0000 0000 0000 0000 0000 0000
000000b0: 0000 0000 0000 0000 0000 0000 0000 0000
000000c0: 0000 0000 0000 0000 0000 0000 0000 0000
000000d0: 0000 0000 0000 0000 0000 0000 0000 0000
000000e0: 0000 0000 0000 0000 0000 0000 0000 0000
000000f0: 0000 0000 0000 0000 0000 0000 0000 0000
00000100: 0000 0000 0000 0000 0000 0000 0000 0000
00000110: 0000 0000 0000 0000 0000 0000 0000 0000
00000120: 0000 0000 0000 0000 0000 0000 0000 0000
00000130: 0000 0000 0000 0000 0000 0000 0000 0000
00000140: 0000 0000 0000 0000 0000 0000 0000 0000
00000150: 0000 0000 0000 0000 0000 0000 0000 0000
00000160: 0000 0000 0000 0000 0000 0000 0000 0000
00000170: 0000 0000 0000 0000 0000 0000 0000 0000
00000180: 0000 0000 0000 0000 0000 0000 0000 0000
00000190: 0000 0000 0000 0000 0000 0000 0000 0000
000001a0: 0000 0000 0000 0000 0000 0000 0000 0000
000001b0: 0000 0000 0000 0000 0000 0000 0000 0000
000001c0: 0000 0000 0000 0000 0000 0000 0000 0000
000001d0: 0000 0000 0000 0000 0000 0000 0000 0000
000001e0: 0000 0000 0000 0000 0000 0000 0000 0000
000001f0: 0000 0000 0000 0000 0000 0000 0000 0000
00000200: 0000 0000 0000 0000 0000 0000 0000 0000
00000210: 0000 0000 0000 0000 0000 0000 0000 0000
00000220: 0000 0000 0000 0000 0000 0000 0000 0000
00000230: 0000 0000 0000 0000 0000 0000 0000 0000
00000240: 0000 0000 0000 0000 0000 0000 0000 0000
00000250: 0000 0000 0000 0000 0000 0000 0000 0000
00000260: 0000 0000 0000 0000 0000 0000 0000 0000
00000270: 0000 0000 0000 0000 0000 0000 0000 0000
00000280: 0000 0000 0000 0000 0000 0000 0000 0000
00000290: 0000 0000 0000 0000 0000 0000 0000 0000
000002a0: 0000 0000 0000 0000 0000 0000 0000 0000
000002b0: 0000 0000 0000 0000 0000 0000 0000 0000
000002c0: 0000 0000 0000 0000 0000 0000 0000 0000
000002d0: 0000 0000 0000 0000 0000 0000 0000 0000
000002e0: 0000 0000 0000 0000 0000 0000 0000 0000
000002f0: 0000 0000 0000 0000 0000 0000 0000 0000
00000300: 0000 0000 0000 0000 0000 0000 0000 0000
00000310: 0000 0000 0000 0000 0000 0000 0000 0000
00000320: 0000 0000 0000 0000 0000 0000 0000 0000
00000330: 0000 0000 0000 0000 0000 0000 0000 0000
00000340: 0000 0000 0000 0000 0000 0000 0000 0000
00000350: 0000 0000 0000 0000 0000 0000 0000 0000
00000360: 0000 0000 0000 0000 0000 0000 0000 0000
00000370: 0000 0000 0000 0000 0000 0000 0000 0000
00000380: 0000 0000 0000 0000 0000 0000 0000 0000
00000390: 0000 0000 0000 0000 0000 0000 0000 0000
000003a0: 0000 0000 0000 0000 0000 0000 0000 0000
000003b0: 0000 0000 0000 0000 0000 0000 0000 0000
000003c0: 0000 0000 0000 0000 0000 0000 0000 0000
000003d0: 0000 0000 0000 0000 0000 0000 0000 0000
000003e0: 0000 0000 0000 0000 0000 0000 0000 0000
000003f0: 0000 0000 0000 0000 0000 0000 0000 0000
0.0 0.0 0.0 0.0 0.0 0.0 0.0 0.0
0.0 0.0 0.0 0.0 0.0 0.0 0.0 0.0
0.0 0.0 0.0 0.0 0.0 0.0 0.0 0.0
0.0 0.0 0.0 0.0 0.0 0.0 0.0 0.0
0.0 0.0 0.0 0.0 0.0 0.0 0.0 0.0
0.0 0.0 0.0 0.0 0.0 0.0 0.0 0.0
0.0 0.0 0.0 0.0 0.0 0.0 0.0 0.0
0.0 0.0 0.0 0.0 0.0 0.0 0.0 0.0
0.0 0.0 0.0 0.0 0.0 0.0 0.0 0.0
0.0 0.0 0.0 0.0 0.0 0.0 0.0 0.0
0.0 0.0 0.0 0.0 0.0 0.0 0.0 0.0
0.0 0.0 0.0 0.0 0.0 0.0 0.0 0.0
0.0 0.0 0.0 0.0 0.0 0.0 0.0 0.0
0.0 0.0 0.0 0.0 0.0 0.0 0.0 0.0
0.0 0.0 0.0 0.0 0.0 0.0 0.0 0.0
0.0 0.0 0.0 0.0 0.0 0.0 0.0 0.0
0.0 0.0 0.0 0.0 0.0 0.0 0.0 0.0
0.0 0.0 0.0 0.0 0.0 0.0 0.0 0.0
0.0 0.0 0.0 0.0 0.0 0.0 0.0 0.0
0.0 0.0 0.0 0.0 0.0 0.0 0.0 0.0
0.0 0.0 0.0 0.0 0.0 0.0 0.0 0.0
0.0 0.0 0.0 0.0 0.0 0.0 0.0 0.0
0.0 0.0 0.0 0.0 0.0 0.0 0.0 0.0
0.0 0.0 0.0 0.0 0.0 0.0 0.0 0.0
0.0 0.0 0.0 0.0 0.0 0.0 0.0 0.0
0.0 0.0 0.0 0.0 0.0 0.0 0.0 0.0
0.0 0.0 0.0 0.0 0.0 0.0 0.0 0.0
0.0 0.0 0.0 0.0 0.0 0.0 0.0 0.0
0.0 0.0 0.0 0.0 0.0 0.0 0.0 0.0
0.0 0.0 0.0 0.0 0.0 0.0 0.0 0.0
0.0 0.0 0.0 0.0 0.0 0.0 0.0 0.0
0.0 0.0 0.0 0.0 0.0 0.0 0.0 0.0

bn1.running_mean f4 [256]
00000000: 0000 0000 0000 0000 0000 0000 0000 0000
00000010: 0000 0000 0000 0000 0000 0000 0000 0000
00000020: 0000 0000 0000 0000 0000 0000 0000 0000
00000030: 0000 0000 0000 0000 0000 0000 0000 0000
00000040: 0000 0000 0000 0000 0000 0000 0000 0000
00000050: 0000 0000 0000 0000 0000 0000 0000 0000
00000060: 0000 0000 0000 0000 0000 0000 0000 0000
00000070: 0000 0000 0000 0000 0000 0000 0000 0000
00000080: 0000 0000 0000 0000 0000 0000 0000 0000
00000090: 0000 0000 0000 0000 0000 0000 0000 0000
000000a0: 0000 0000 0000 0000 0000 0000 0000 0000
000000b0: 0000 0000 0000 0000 0000 0000 0000 0000
000000c0: 0000 0000 0000 0000 0000 0000 0000 0000
000000d0: 0000 0000 0000 0000 0000 0000 0000 0000
000000e0: 0000 0000 0000 0000 0000 0000 0000 0000
000000f0: 0000 0000 0000 0000 0000 0000 0000 0000
00000100: 0000 0000 0000 0000 0000 0000 0000 0000
00000110: 0000 0000 0000 0000 0000 0000 0000 0000
00000120: 0000 0000 0000 0000 0000 0000 0000 0000
00000130: 0000 0000 0000 0000 0000 0000 0000 0000
00000140: 0000 0000 0000 0000 0000 0000 0000 0000
00000150: 0000 0000 0000 0000 0000 0000 0000 0000
00000160: 0000 0000 0000 0000 0000 0000 0000 0000
00000170: 0000 0000 0000 0000 0000 0000 0000 0000
00000180: 0000 0000 0000 0000 0000 0000 0000 0000
00000190: 0000 0000 0000 0000 0000 0000 0000 0000
000001a0: 0000 0000 0000 0000 0000 0000 0000 0000
000001b0: 0000 0000 0000 0000 0000 0000 0000 0000
000001c0: 0000 0000 0000 0000 0000 0000 0000 0000
000001d0: 0000 0000 0000 0000 0000 0000 0000 0000
000001e0: 0000 0000 0000 0000 0000 0000 0000 0000
000001f0: 0000 0000 0000 0000 0000 0000 0000 0000
00000200: 0000 0000 0000 0000 0000 0000 0000 0000
00000210: 0000 0000 0000 0000 0000 0000 0000 0000
00000220: 0000 0000 0000 0000 0000 0000 0000 0000
00000230: 0000 0000 0000 0000 0000 0000 0000 0000
00000240: 0000 0000 0000 0000 0000 0000 0000 0000
00000250: 0000 0000 0000 0000 0000 0000 0000 0000
00000260: 0000 0000 0000 0000 0000 0000 0000 0000
00000270: 0000 0000 0000 0000 0000 0000 0000 0000
00000280: 0000 0000 0000 0000 0000 0000 0000 0000
00000290: 0000 0000 0000 0000 0000 0000 0000 0000
000002a0: 0000 0000 0000 0000 0000 0000 0000 0000
000002b0: 0000 0000 0000 0000 0000 0000 0000 0000
000002c0: 0000 0000 0000 0000 0000 0000 0000 0000
000002d0: 0000 0000 0000 0000 0000 0000 0000 0000
000002e0: 0000 0000 0000 0000 0000 0000 0000 0000
000002f0: 0000 0000 0000 0000 0000 0000 0000 0000
00000300: 0000 0000 0000 0000 0000 0000 0000 0000
00000310: 0000 0000 0000 0000 0000 0000 0000 0000
00000320: 0000 0000 0000 0000 0000 0000 0000 0000
00000330: 0000 0000 0000 0000 0000 0000 0000 0000
00000340: 0000 0000 0000 0000 0000 0000 0000 0000
00000350: 0000 0000 0000 0000 0000 0000 0000 0000
00000360: 0000 0000 0000 0000 0000 0000 0000 0000
00000370: 0000 0000 0000 0000 0000 0000 0000 0000
00000380: 0000 0000 0000 0000 0000 0000 0000 0000
00000390: 0000 0000 0000 0000 0000 0000 0000 0000
000003a0: 0000 0000 0000 0000 0000 0000 0000 0000
000003b0: 0000 0000 0000 0000 0000 0000 0000 0000
000003c0: 0000 0000 0000 0000 0000 0000 0000 0000
000003d0: 0000 0000 0000 0000 0000 0000 0000 0000
000003e0: 0000 0000 0000 0000 0000 0000 0000 0000
000003f0: 0000 0000 0000 0000 0000 0000 0000 0000
0.0 0.0 0.0 0.0 0.0 0.0 0.0 0.0
0.0 0.0 0.0 0.0 0.0 0.0 0.0 0.0
0.0 0.0 0.0 0.0 0.0 0.0 0.0 0.0
0.0 0.0 0.0 0.0 0.0 0.0 0.0 0.0
0.0 0.0 0.0 0.0 0.0 0.0 0.0 0.0
0.0 0.0 0.0 0.0 0.0 0.0 0.0 0.0
0.0 0.0 0.0 0.0 0.0 0.0 0.0 0.0
0.0 0.0 0.0 0.0 0.0 0.0 0.0 0.0
0.0 0.0 0.0 0.0 0.0 0.0 0.0 0.0
0.0 0.0 0.0 0.0 0.0 0.0 0.0 0.0
0.0 0.0 0.0 0.0 0.0 0.0 0.0 0.0
0.0 0.0 0.0 0.0 0.0 0.0 0.0 0.0
0.0 0.0 0.0 0.0 0.0 0.0 0.0 0.0
0.0 0.0 0.0 0.0 0.0 0.0 0.0 0.0
0.0 0.0 0.0 0.0 0.0 0.0 0.0 0.0
0.0 0.0 0.0 0.0 0.0 0.0 0.0 0.0
0.0 0.0 0.0 0.0 0.0 0.0 0.0 0.0
0.0 0.0 0.0 0.0 0.0 0.0 0.0 0.0
0.0 0.0 0.0 0.0 0.0 0.0 0.0 0.0
0.0 0.0 0.0 0.0 0.0 0.0 0.0 0.0
0.0 0.0 0.0 0.0 0.0 0.0 0.0 0.0
0.0 0.0 0.0 0.0 0.0 0.0 0.0 0.0
0.0 0.0 0.0 0.0 0.0 0.0 0.0 0.0
0.0 0.0 0.0 0.0 0.0 0.0 0.0 0.0
0.0 0.0 0.0 0.0 0.0 0.0 0.0 0.0
0.0 0.0 0.0 0.0 0.0 0.0 0.0 0.0
0.0 0.0 0.0 0.0 0.0 0.0 0.0 0.0
0.0 0.0 0.0 0.0 0.0 0.0 0.0 0.0
0.0 0.0 0.0 0.0 0.0 0.0 0.0 0.0
0.0 0.0 0.0 0.0 0.0 0.0 0.0 0.0
0.0 0.0 0.0 0.0 0.0 0.0 0.0 0.0
0.0 0.0 0.0 0.0 0.0 0.0 0.0 0.0

bn1.running_var f4 [256]
00000000: 0000 803f 0000 803f 0000 803f 0000 803f
00000010: 0000 803f 0000 803f 0000 803f 0000 803f
00000020: 0000 803f 0000 803f 0000 803f 0000 803f
00000030: 0000 803f 0000 803f 0000 803f 0000 803f
00000040: 0000 803f 0000 803f 0000 803f 0000 803f
00000050: 0000 803f 0000 803f 0000 803f 0000 803f
00000060: 0000 803f 0000 803f 0000 803f 0000 803f
00000070: 0000 803f 0000 803f 0000 803f 0000 803f
00000080: 0000 803f 0000 803f 0000 803f 0000 803f
00000090: 0000 803f 0000 803f 0000 803f 0000 803f
000000a0: 0000 803f 0000 803f 0000 803f 0000 803f
000000b0: 0000 803f 0000 803f 0000 803f 0000 803f
000000c0: 0000 803f 0000 803f 0000 803f 0000 803f
000000d0: 0000 803f 0000 803f 0000 803f 0000 803f
000000e0: 0000 803f 0000 803f 0000 803f 0000 803f
000000f0: 0000 803f 0000 803f 0000 803f 0000 803f
00000100: 0000 803f 0000 803f 0000 803f 0000 803f
00000110: 0000 803f 0000 803f 0000 803f 0000 803f
00000120: 0000 803f 0000 803f 0000 803f 0000 803f
00000130: 0000 803f 0000 803f 0000 803f 0000 803f
00000140: 0000 803f 0000 803f 0000 803f 0000 803f
00000150: 0000 803f 0000 803f 0000 803f 0000 803f
00000160: 0000 803f 0000 803f 0000 803f 0000 803f
00000170: 0000 803f 0000 803f 0000 803f 0000 803f
00000180: 0000 803f 0000 803f 0000 803f 0000 803f
00000190: 0000 803f 0000 803f 0000 803f 0000 803f
000001a0: 0000 803f 0000 803f 0000 803f 0000 803f
000001b0: 0000 803f 0000 803f 0000 803f 0000 803f
000001c0: 0000 803f 0000 803f 0000 803f 0000 803f
000001d0: 0000 803f 0000 803f 0000 803f 0000 803f
000001e0: 0000 803f 0000 803f 0000 803f 0000 803f
000001f0: 0000 803f 0000 803f 0000 803f 0000 803f
00000200: 0000 803f 0000 803f 0000 803f 0000 803f
00000210: 0000 803f 0000 803f 0000 803f 0000 803f
00000220: 0000 803f 0000 803f 0000 803f 0000 803f
00000230: 0000 803f 0000 803f 0000 803f 0000 803f
00000240: 0000 803f 0000 803f 0000 803f 0000 803f
00000250: 0000 803f 0000 803f 0000 803f 0000 803f
00000260: 0000 803f 0000 803f 0000 803f 0000 803f
00000270: 0000 803f 0000 803f 0000 803f 0000 803f
00000280: 0000 803f 0000 803f 0000 803f 0000 803f
00000290: 0000 803f 0000 803f 0000 803f 0000 803f
000002a0: 0000 803f 0000 803f 0000 803f 0000 803f
000002b0: 0000 803f 0000 803f 0000 803f 0000 803f
000002c0: 0000 803f 0000 803f 0000 803f 0000 803f
000002d0: 0000 803f 0000 803f 0000 803f 0000 803f
000002e0: 0000 803f 0000 803f 0000 803f 0000 803f
000002f0: 0000 803f 0000 803f 0000 803f 0000 803f
00000300: 0000 803f 0000 803f 0000 803f 0000 803f
00000310: 0000 803f 0000 803f 0000 803f 0000 803f
00000320: 0000 803f 0000 803f 0000 803f 0000 803f
00000330: 0000 803f 0000 803f 0000 803f 0000 803f
00000340: 0000 803f 0000 803f 0000 803f 0000 803f
00000350: 0000 803f 0000 803f 0000 803f 0000 803f
00000360: 0000 803f 0000 803f 0000 803f 0000 803f
00000370: 0000 803f 0000 803f 0000 803f 0000 803f
00000380: 0000 803f 0000 803f 0000 803f 0000 803f
00000390: 0000 803f 0000 803f 0000 803f 0000 803f
000003a0: 0000 803f 0000 803f 0000 803f 0000 803f
000003b0: 0000 803f 0000 803f 0000 803f 0000 803f
000003c0: 0000 803f 0000 803f 0000 803f 0000 803f
000003d0: 0000 803f 0000 803f 0000 803f 0000 803f
000003e0: 0000 803f 0000 803f 0000 803f 0000 803f
000003f0: 0000 803f 0000 803f 0000 803f 0000 803f
1.0 1.0 1.0 1.0 1.0 1.0 1.0 1.0
1.0 1.0 1.0 1.0 1.0 1.0 1.0 1.0
1.0 1.0 1.0 1.0 1.0 1.0 1.0 1.0
1.0 1.0 1.0 1.0 1.0 1.0 1.0 1.0
1.0 1.0 1.0 1.0 1.0 1.0 1.0 1.0
1.0 1.0 1.0 1.0 1.0 1.0 1.0 1.0
1.0 1.0 1.0 1.0 1.0 1.0 1.0 1.0
1.0 1.0 1.0 1.0 1.0 1.0 1.0 1.0
1.0 1.0 1.0 1.0 1.0 1.0 1.0 1.0
1.0 1.0 1.0 1.0 1.0 1.0 1.0 1.0
1.0 1.0 1.0 1.0 1.0 1.0 1.0 1.0
1.0 1.0 1.0 1.0 1.0 1.0 1.0 1.0
1.0 1.0 1.0 1.0 1.0 1.0 1.0 1.0
1.0 1.0 1.0 1.0 1.0 1.0 1.0 1.0
1.0 1.0 1.0 1.0 1.0 1.0 1.0 1.0
1.0 1.0 1.0 1.0 1.0 1.0 1.0 1.0
1.0 1.0 1.0 1.0 1.0 1.0 1.0 1.0
1.0 1.0 1.0 1.0 1.0 1.0 1.0 1.0
1.0 1.0 1.0 1.0 1.0 1.0 1.0 1.0
1.0 1.0 1.0 1.0 1.0 1.0 1.0 1.0
1.0 1.0 1.0 1.0 1.0 1.0 1.0 1.0
1.0 1.0 1.0 1.0 1.0 1.0 1.0 1.0
1.0 1.0 1.0 1.0 1.0 1.0 1.0 1.0
1.0 1.0 1.0 1.0 1.0 1.0 1.0 1.0
1.0 1.0 1.0 1.0 1.0 1.0 1.0 1.0
1.0 1.0 1.0 1.0 1.0 1.0 1.0 1.0
1.0 1.0 1.0 1.0 1.0 1.0 1.0 1.0
1.0 1.0 1.0 1.0 1.0 1.0 1.0 1.0
1.0 1.0 1.0 1.0 1.0 1.0 1.0 1.0
1.0 1.0 1.0 1.0 1.0 1.0 1.0 1.0
1.0 1.0 1.0 1.0 1.0 1.0 1.0 1.0
1.0 1.0 1.0 1.0 1.0 1.0 1.0 1.0
