checkpoint_actor.pth (torch_old, 571378 bytes, 12 tensors)

fc1.weight f4 [256, 33]
0	0xbd9cc40d	-0.07654581
1	0xbd02e3b1	-0.031955425
2	0xbe1273f6	-0.14302048
3	0x3d2735f0	0.040822923
4	0xbd03e283	-0.03219844
5	0xbb28bfc8	-0.0025749076
6	0x3d8577a4	0.0651696
7	0x3d793b03	0.060847294
8	0x3d601e80	0.054716587
9	0x3cd267c1	0.02568424
10	0x3c53ffff	0.012939452
11	0xbd7c6394	-0.061618403
12	0xbd26f439	-0.040760253
13	0x3d79849f	0.060917493
14	0x3c75bc97	0.014998577
15	0x3d3b253d	0.04568981
16	0x3d52cc61	0.051464442
17	0x3c33b6aa	0.0109688435
18	0x3d93ac75	0.07210628
19	0x3d0f3a2e	0.034967594
20	0xbcdc3c09	-0.026884096
21	0x3b727a9f	0.0036999357
22	0xbc972c2c	-0.01845368
23	0x3df5ee0e	0.12008296
24	0xbc860cfb	-0.016363611
25	0x3d4c9616	0.04994782
26	0x3d5e7622	0.05431188
27	0x3dd26f19	0.102750964
28	0x3e0ef969	0.1396233
29	0x3c320e90	0.01086773
30	0x3b2d335c	0.0026428318
31	0xbd004b7c	-0.031321988
32	0xbfc5da3a	-1.5457222
33	0xbd873a63	-0.06602933
34	0xbc833918	-0.016018435
35	0xbe17e86a	-0.14834753
36	0x3e05c87d	0.13064761
37	0x3de8adab	0.113612495
38	0x3d9cf394	0.07663646
39	0xbe325ee0	-0.17419004
40	0x3daf0236	0.085453436
41	0x3e2755c4	0.1634131
42	0x3cd7a914	0.02632574
43	0x3d0e508e	0.03474479
44	0xbb212802	-0.0024590497
45	0xbc39f247	-0.011349267
46	0x3e14540a	0.14485183
47	0x3c43c394	0.011948485
48	0x3b74d26e	0.0037356871
49	0xbdbe6379	-0.09296317
50	0x3d0ce43d	0.034397352
51	0x3cb5a995	0.02217559
52	0xbd64a2a1	-0.055819158
53	0xbdf41221	-0.1191752
54	0xbd810a63	-0.06300809
55	0x3cd07f04	0.02545119
56	0x3ddf0f87	0.108916335
57	0x3dc13adb	0.09435054
58	0x3ddaea13	0.10689177
59	0x3dc4b496	0.096047565
60	0x3d20457d	0.03912877
61	0x3cfd7b1c	0.030942492
62	0x3d3d77f2	0.046256967
63	0xbdfbe65d	-0.12299798
64	0xbd1fac86	-0.03898289
65	0x3c89e0e2	0.016830865
66	0x3d98d4b7	0.07462447
67	0x3d7b77e4	0.061393633
68	0xbd723ea6	-0.059141777
69	0x3d832196	0.064028904
70	0xbc64d846	-0.013967579
71	0xbcea50f1	-0.028603049
72	0x3ca4bb44	0.020108826
73	0x3d09a520	0.03360474
74	0x3cff0c7e	0.031133886
75	0x3dedb8a4	0.11607483
76	0x3d2fe190	0.042939723
77	0x3d48de94	0.049040392
78	0xbb33ccfc	-0.0027435413
79	0xbdafce8e	-0.08584319
80	0xbd85173d	-0.06498573
81	0x3ca9af09	0.020713346
82	0xbd95636a	-0.07294352
83	0xbcc80978	-0.024418578
84	0xbdc02850	-0.09382689
85	0xbc5d451a	-0.013505245
86	0x3ca42b0e	0.020040061
87	0x3dbed224	0.09317425
88	0xbc815e89	-0.015792148
89	0xbe220b0d	-0.15824528
90	0xbd87f0d4	-0.06637731
91	0x3d0bdb8a	0.034144916
92	0x3df2f1ef	0.118625514
93	0xbd1b87e5	-0.037971396
94	0xbd555baa	-0.05208937
95	0xbb261140	-0.0025339872
96	0x3d335bc0	0.04378867
97	0x3cb2d3b4	0.021829464
98	0xbf623121	-0.88356215
99	0xbdcddee1	-0.100522764
100	0x3d509da8	0.050931603
101	0xbda32fc6	-0.079680964
102	0xbd16d26d	-0.03682177
103	0x3db726d2	0.08942951
104	0x3e3f3187	0.18671237
105	0x3d95c686	0.07313256
106	0xbd499325	-0.049212594
107	0xbc1f1cb7	-0.009711436
108	0xbe074836	-0.1321114
109	0xbd0452cd	-0.032305527
110	0x3df011bd	0.11722133
111	0x3ce108a4	0.02746994
112	0x3cc29040	0.023750424
113	0x3c99d3cd	0.018777752
114	0xbbcb0f74	-0.0061969105
115	0xbc9d3151	-0.019188555
116	0xbd8fede5	-0.07027797
117	0xbd8938d7	-0.067002945
118	0xbda92337	-0.0825867
119	0x3c0b7c39	0.008513504
120	0xbd0d3b39	-0.034480307
121	0x3ce02de7	0.027365638
122	0xbbd2aaa8	-0.006429035
123	0xbc9841bf	-0.018586038
124	0x3e6fcc97	0.23417889
125	0x3de07852	0.10960449
126	0x3e23bcb9	0.1598996
127	0xbd9bf9e6	-0.07616024
128	0xbcdebb1c	-0.02718883
129	0xbdeb1606	-0.1147881
130	0x3d191d22	0.0373813
131	0x3ec3d0b9	0.3824518
132	0xbc95240d	-0.018205667
133	0x3d493fae	0.049132995
134	0x3ea88c14	0.3291937
135	0x3d114c4b	0.03547315
136	0xba1492fd	-0.0005667655
137	0x3e1ea4fa	0.15492621
138	0x3e1b7dcd	0.15184708
139	0xbdc47d3a	-0.095941976
140	0xbccc1047	-0.024910105
141	0xbdfdbab4	-0.123891264
142	0xbde2cb70	-0.11073959
143	0xbc21d773	-0.009878027
144	0x3d8215c6	0.06351809
145	0x3b0ff1dd	0.002196423
146	0xbdb0bb25	-0.08629445
147	0x3dfeff54	0.12451044
148	0xbe351b10	-0.17686105
149	0xbcfe88a9	-0.031071024
150	0x3cc0f724	0.023555346
151	0xbabc3d8c	-0.0014361604
152	0x3d9ac4f0	0.07557094
153	0x3de1cf65	0.110258855
154	0x3a49191a	0.0007671282
155	0xbde2a263	-0.11066129
156	0x3c85bcf2	0.016325448
157	0x3ce35189	0.02774884
158	0xbc34ac19	-0.011027359
159	0x3be10c2c	0.006867906
160	0xbdefbe76	-0.117062494
161	0x3d5cd172	0.05391068
162	0x3ce2591a	0.027630378
163	0xbb118d80	-0.0022209585
164	0x3e4a9036	0.19781575
165	0xbe8eecc5	-0.27915016
166	0x3d8d6c20	0.06905389
167	0xbd7d16aa	-0.061789192
168	0xbbe31ae3	-0.0069306954
169	0xbdf13c83	-0.1177912
170	0x3c603b50	0.013686016
171	0x3d440cd1	0.047863785
172	0xbd7a17ad	-0.061057735
173	0xbe46735f	-0.19379948
174	0x3d793c3a	0.060848452
175	0xbca34404	-0.019929893
176	0x3da23e15	0.079219975
177	0xbcf5ce9a	-0.030005742
178	0x3db52095	0.08844105
179	0xbd968b68	-0.073508084
180	0x3d866e23	0.06563976
181	0xbcb1cc0f	-0.021703748
182	0x3c15cd9e	0.009143261
183	0xbcbfee9f	-0.023429213
184	0xbd1ac89c	-0.037788972
185	0xbc21cdec	-0.009875756
186	0xbe009047	-0.12555037
187	0x3ce0dc68	0.027448848
188	0x3da685a8	0.08130962
189	0x3c83fe96	0.016112607
190	0x3b8a621f	0.0042231227
191	0xbcb3297c	-0.021870367
192	0xbe05c17b	-0.13062088
193	0xbe11e316	-0.14246783
194	0xbd2d6626	-0.042333744
195	0x3cee42e7	0.029084636
196	0x3d060678	0.032721013
197	0x3f896fca	1.073724
198	0xbe5794bb	-0.2105283
199	0x3e3d1128	0.18463576
200	0x3e13f2d8	0.14448106
201	0x3d651a6e	0.05593341
202	0xbd6cfe95	-0.057859976
203	0xbd7de132	-0.06198234
204	0x3c3d1336	0.011540225
205	0x3d157e75	0.036497552
206	0x3d189f96	0.037261568
207	0x3d6a888b	0.057259124
208	0xbe35bff5	-0.17749007
209	0xbc45f559	-0.012082421
210	0x3d8e000f	0.06933605
211	0xbe6f3699	-0.23360671
212	0xbd4892a0	-0.048967957
213	0x3dd8d86d	0.10588155
214	0x3c14749d	0.009061006
215	0xbc94ef5c	-0.018180542
216	0x3d8f0a00	0.06984329
217	0xbdbb11da	-0.09134264
218	0x3c88eb01	0.016713621
219	0xbe335440	-0.17512608
220	0x3de3e6fd	0.11128042
221	0xbd9f455c	-0.07776901
222	0x3d2698d5	0.040673096
223	0x3c9e2812	0.019306216
224	0x3c262fbc	0.010143217
225	0x3c2927bb	0.010324414
226	0xbb8fae36	-0.0043847812
227	0x3cf58160	0.029968917
228	0xbd5fe388	-0.05466035
229	0xbd43736a	-0.04771749
230	0x3e2faf55	0.17156728
231	0x3d55abc0	0.052165747
232	0xbd880e92	-0.06643404
233	0x3e2220e3	0.15832858
234	0x3cd7c058	0.026336834
235	0x3d498992	0.049203463
236	0xbc2bbeaa	-0.01048247
237	0xbe2eccf7	-0.17070375
238	0xbd4ee046	-0.050506853
239	0x3d43e351	0.047824208
240	0x3c8dd119	0.01731162
241	0x3d415223	0.047197472
242	0x3d23d901	0.040001873
243	0x3d271b45	0.04079749
244	0xbe02d7d9	-0.12777652
245	0xbdf4757c	-0.11936471
246	0xbe2a4be3	-0.16630511
247	0xbd6808e8	-0.05664912
248	0x3c88924a	0.016671319
249	0x3ca258c2	0.019817714
250	0x3b50c983	0.0031858392
251	0xbc95d323	-0.018289154
252	0x3d975667	0.07389527
253	0x3d1fe148	0.039033204
254	0xbcb10eb5	-0.021613458
255	0xbc26cdab	-0.010180871

fc1.bias f4 [256]
0	0xbdb31855	-0.08744875
1	0xbe21aea5	-0.15789278
2	0x3e5d18ca	0.21591488
3	0xbe27216f	-0.16321348
4	0x3d3f3551	0.046681706
5	0x3d8fc8d8	0.0702073
6	0xbe50fe2d	-0.2040946
7	0x3e073c41	0.13206579
8	0x3dbc5a45	0.09196905
9	0x3d4f0079	0.05053756
10	0xbe77be7d	-0.2419376
11	0x3ddcc902	0.10780527
12	0xbe44f501	-0.19234087
13	0x3dd99ecb	0.106259905
14	0x3e32f85b	0.17477553
15	0x3e2d4414	0.16920501
16	0x3dc0734c	0.09396991
17	0xbc6b7305	-0.0143706845
18	0xbba95716	-0.005167852
19	0xbde8a705	-0.113599814
20	0x3e22f7b0	0.15914798
21	0xbdc419aa	-0.095752075
22	0x3d3a7fbc	0.045531973
23	0x3dcd3827	0.10020476
24	0x3b7826af	0.0037864854
25	0xbcbe2aea	-0.023213822
26	0x3ddd991b	0.10820218
27	0xbbce99c9	-0.0063049537
28	0x3d3b748e	0.045765452
29	0xbd593c8d	-0.05303626
30	0xbdd1b8f7	-0.10240357
31	0xbda2d89c	-0.07951471
32	0x3dd62436	0.104561254
33	0xbd69b092	-0.057053156
34	0xbd7ea8ff	-0.062172886
35	0x3dfe5b18	0.124197185
36	0xbe14e318	-0.14539754
37	0xbe1d8ad8	-0.15384996
38	0x3e155b79	0.14585675
39	0x3dc11a5c	0.09428856
40	0xbe3897a5	-0.18026598
41	0x3cb9060b	0.02258589
42	0x3e1b8250	0.15186429
43	0x3e1e47d6	0.1545709
44	0x3e00bee4	0.12572819
45	0x3d86ad4b	0.06576022
46	0x3dd47dae	0.10375534
47	0x3c35456b	0.011063914
48	0x3e28c579	0.1648158
49	0x3dbe9124	0.09305027
50	0xbe5f5ce8	-0.21812785
51	0x3da38a0d	0.079853155
52	0xbbb2c9e4	-0.005456196
53	0xbd9f94c6	-0.07792048
54	0xbd7b3c55	-0.061336834
55	0x3da39a3e	0.07988404
56	0xbbc40e4b	-0.005983149
57	0x3d92a8ab	0.07161077
58	0xbe272052	-0.16320923
59	0x3d681bcf	0.056667145
60	0xbe0c34a7	-0.1369196
61	0xbe1a022b	-0.1503989
62	0x3d30bc3a	0.043148257
63	0x3d53d00d	0.051712085
64	0xbcd3ac21	-0.025838913
65	0xbdf0e91d	-0.11763213
66	0x3e1634e6	0.14668617
67	0xbd72d5b3	-0.05928583
68	0x3db61d59	0.08892316
69	0xbbc6b1a6	-0.006063658
70	0x3e314208	0.17310345
71	0xbd28ffb6	-0.04125949
72	0xbe709dac	-0.23497647
73	0x3db22841	0.08699084
74	0x3d9de865	0.07710341
75	0x3d06f40e	0.032947592
76	0xbd0f7462	-0.0350231
77	0x3c3f3c1a	0.011672044
78	0xbd509e8f	-0.050932463
79	0x3d0fd4fb	0.035115223
80	0x3e82fac7	0.25581953
81	0xbcd42d00	-0.025900364
82	0xbe89c3d6	-0.26907223
83	0xbd02c749	-0.031928334
84	0x3d487b4b	0.048945706
85	0x3dae13fa	0.08499904
86	0xbe24b6b2	-0.16085318
87	0xbd83e855	-0.06440798
88	0xbdf19a50	-0.11797011
89	0x3df239b4	0.11827412
90	0xbabeae83	-0.0014547858
91	0x3d2e634c	0.042575166
92	0x3e262ed4	0.16228801
93	0x3d88b299	0.0667469
94	0x3d4ca23f	0.049959417
95	0x3d55ac0f	0.05216604
96	0x3c0d2c65	0.0086165415
97	0xbe44961f	-0.19197892
98	0xbd81b845	-0.06333975
99	0x3e0c2a2c	0.13687962
100	0x3da9013b	0.08252188
101	0x3de46ec1	0.11153937
102	0xbcdfe3de	-0.027330335
103	0xbd1bb5fd	-0.038015354
104	0xbd7d759a	-0.06187973
105	0xbbb55787	-0.0055341157
106	0x3d79568e	0.06087356
107	0x3ce36e7b	0.027762642
108	0x3ca8641f	0.020555554
109	0xbda7940c	-0.081825346
110	0x3e42a2fe	0.19007489
111	0x3db1c81a	0.086807445
112	0xbe306bb1	-0.17228581
113	0xbe37a451	-0.17933775
114	0x3dbd9e13	0.09258666
115	0x3c64f1a0	0.0139736235
116	0xbde05f00	-0.1095562
117	0xbde0c893	-0.109757565
118	0x3d8dbbe6	0.069206044
119	0x3ce7e5ea	0.028307874
120	0x3e14052c	0.14455098
121	0x3d951a74	0.07280436
122	0xbd9bd73e	-0.076094136
123	0x3b8ebbd1	0.0043558856
124	0x3e72380d	0.23654194
125	0x3e0adc17	0.1356052
126	0xbe7ae663	-0.24501948
127	0xbddd0e8c	-0.1079379
128	0xbd43bdfe	-0.047788613
129	0xbe823e9f	-0.254384
130	0xbdad8ff6	-0.08474724
131	0xbd8370e1	-0.06418014
132	0x3e6f3301	0.233593
133	0xbd9fcdc7	-0.07802921
134	0xbe33d610	-0.17562127
135	0xbd392c83	-0.045208465
136	0xbdd4e934	-0.103960425
137	0xbe88f1f3	-0.26747093
138	0xbddad12f	-0.1068443
139	0x3b0f1749	0.0021833947
140	0xbca7901c	-0.020454459
141	0xbd9ee829	-0.07759125
142	0x3e11a8dd	0.14224572
143	0x3d21ffeb	0.039550703
144	0xbd7d9f1e	-0.061919324
145	0xbe12345c	-0.14277786
146	0xbd9031ff	-0.07040786
147	0x3b820d35	0.0039688596
148	0x3d6b348b	0.057423156
149	0xbe219a48	-0.1578151
150	0xbd75c431	-0.060001556
151	0xbcd9aaea	-0.026570756
152	0x3e2009c8	0.15628731
153	0x3de0262b	0.1094478
154	0x3da970f5	0.08273498
155	0xbcc88df4	-0.024481751
156	0xbd9d9021	-0.07693506
157	0x3e1c0d28	0.15239394
158	0xbdbfaa03	-0.09358599
159	0xbd4c5a4a	-0.049890794
160	0x3dfee183	0.12445357
161	0xbd27aa24	-0.040933743
162	0x3dc6b282	0.097020164
163	0x3e22f8c7	0.15915214
164	0x3de2609f	0.11053585
165	0xbd4cfad6	-0.050043903
166	0x3cdd4ff9	0.027015673
167	0xbdbacbff	-0.091209404
168	0xbddc2b74	-0.107504755
169	0xbe0bd76f	-0.136564
170	0x3e2e2f04	0.17010123
171	0x3dda9277	0.10672467
172	0xbe5aed66	-0.21379623
173	0x3daf485c	0.08558723
174	0x3bd746e1	0.0065697287
175	0xbdbfbf6d	-0.093626834
176	0xbe821ba8	-0.25411725
177	0xbd76dc4d	-0.06026869
178	0x3c96cb28	0.01840742
179	0xbd1c91a2	-0.038224824
180	0xbc3db7e1	-0.011579485
181	0x3c5eca19	0.0135979885
182	0xbe0f36fa	-0.13985816
183	0xbd353b53	-0.04424603
184	0x3df89fc5	0.121398486
185	0x3dde35aa	0.10850079
186	0x3e75c09d	0.23999257
187	0xbdffc0e9	-0.124879666
188	0xbd386e6a	-0.045027174
189	0x3dff5560	0.12467456
190	0xbd98eaaf	-0.07466637
191	0x3d335351	0.04378063
192	0x3dca11eb	0.09866699
193	0xbcb7055f	-0.022341428
194	0xbccb72ae	-0.024834957
195	0xbd37de94	-0.04489
196	0x3c7e614c	0.015526127
197	0xbc0136d8	-0.007886611
198	0x3d18e3ba	0.037326552
199	0x3d34c279	0.044130776
200	0x3e1c79f7	0.15280901
201	0x3e3a5fa0	0.1820054
202	0x3d129be0	0.035793185
203	0x3e3d93ae	0.18513367
204	0x3d558129	0.05212513
205	0xbdc69494	-0.09696308
206	0xbe6c8f26	-0.23101482
207	0xbe594e15	-0.21221192
208	0x3da6fc9e	0.08153652
209	0x3df2d144	0.118563205
210	0xbd549d7b	-0.051907998
211	0x3abd3393	0.0014434926
212	0xbd5a2b44	-0.053263918
213	0x3d40d41e	0.04707729
214	0xbe631d4e	-0.22179148
215	0x3cfc0414	0.030763663
216	0xbd1dc82e	-0.038520984
217	0xbd4557b3	-0.04817934
218	0x3bee168a	0.0072658705
219	0x3e2ed8d6	0.17074904
220	0x3da1e63a	0.0790524
221	0xbde438b5	-0.111436285
222	0x3c882248	0.01661791
223	0xbe6a3246	-0.2287074
224	0x3de6ae53	0.112637185
225	0xbda3e3bf	-0.080024235
226	0x3cb084e0	0.021547735
227	0xbdd0d743	-0.10197308
228	0x3d1619b5	0.03664561
229	0x3e53a8a4	0.206698
230	0x3e2d4421	0.1692052
231	0xbc432a1d	-0.011911896
232	0xbe03ff2b	-0.12890308
233	0x3e444d45	0.19170101
234	0xbd351d23	-0.04421724
235	0xbe76390f	-0.24045204
236	0x3dcaf89a	0.09910698
237	0x3d875848	0.06608635
238	0xbe385e48	-0.18004715
239	0x3c980c78	0.018560633
240	0xbe362d54	-0.17790729
241	0xbe31b7c7	-0.17355262
242	0x3e03f90a	0.1288797
243	0xbd5a91de	-0.053361766
244	0x3e0c2478	0.13685787
245	0xbd92ecb1	-0.071740516
246	0xbe2a0d4c	-0.16606635
247	0x3ddb1c4c	0.106987566
248	0x3cf51fad	0.02992233
249	0x3dde246e	0.10846792
250	0xbbf4bb74	-0.007468635
251	0xbdfdd872	-0.12394799
252	0xbda41feb	-0.080139
253	0x3d9d8b96	0.076926395
254	0xbd98633b	-0.07440802
255	0xbdc06735	-0.09394685

fc2_1.weight f4 [256, 256]
0	0xbe52b72d	-0.20577689
1	0x3cc9868d	0.024600292
2	0x3e3f4fd7	0.186828
3	0x3da34556	0.07972209
4	0xbc8232eb	-0.01589342
5	0xbe6efff5	-0.23339827
6	0xbd0590a1	-0.032608632
7	0x3d0b2d61	0.033978824
8	0x3dbeba8e	0.09312926
9	0xbd63b0b6	-0.055588447
10	0xbd953d31	-0.07287062
11	0xbcc54a30	-0.024083227
12	0xbe93d673	-0.2887455
13	0x3b76d952	0.0037666154
14	0xbdb0b0dc	-0.08627483
15	0xbcc78897	-0.024357123
16	0x3bd3baf1	0.006461494
17	0x3da06094	0.07830921
18	0x3da4077e	0.080092415
19	0xbd62e382	-0.05539275
20	0xbdc59c77	-0.09648984
21	0xbda4db64	-0.08049658
22	0xbc4762bb	-0.012169535
23	0x3e266114	0.1624797
24	0xbe505362	-0.20344308
25	0xbe1cba42	-0.15305427
26	0xbe1b9854	-0.15194827
27	0xbc23dc9b	-0.010001327
28	0x3d0f138d	0.034930754
29	0x3dcebdc7	0.10094791
30	0x3b0a876b	0.0021137844
31	0x3d69b699	0.057058904
32	0x3cf476d3	0.029841816
33	0xbd56f1a5	-0.052476544
34	0xbc590d56	-0.013247808
35	0xbd1ab8f8	-0.037774056
36	0x3d2a9e12	0.041654654
37	0xbe2672ff	-0.16254805
38	0x3caf51e3	0.021401351
39	0x3c9bdc6c	0.019026004
40	0x3dc4075c	0.09571716
41	0x3db4091a	0.087907985
42	0xbcbf1652	-0.023326073
43	0xbd3d484c	-0.046211526
44	0xbd84f516	-0.06492059
45	0x3e1d5dcb	0.1536781
46	0xbccdbb37	-0.025113685
47	0xbd452598	-0.048131555
48	0xbe1c140d	-0.15242024
49	0xbd9a40ab	-0.07531866
50	0x3da94d13	0.08266654
51	0xbcf75165	-0.03019018
52	0xbda8246f	-0.08210074
53	0x3d777f4c	0.060424134
54	0x3c81450f	0.01578
55	0x3da30364	0.07959631
56	0xbbe73931	-0.0070563783
57	0xbe91867e	-0.28422922
58	0xbd01cb9b	-0.031688314
59	0x3d50a339	0.05093691
60	0x3d8a5ae3	0.067556165
61	0xbcf24bdf	-0.029577194
62	0x3d097314	0.033557013
63	0x3d015bf5	0.031581838
64	0x3de297f6	0.110641405
65	0xbbc5d15f	-0.006036922
66	0x3da9d78d	0.08293066
67	0x3dc66e5e	0.096890196
68	0xbd5778f8	-0.0526056
69	0x3dfdc58e	0.12391196
70	0xbd1fcaae	-0.03901165
71	0x3dc76bfc	0.09737393
72	0xbe37e8c5	-0.17959888
73	0x3c224670	0.009904489
74	0x3deb6ef2	0.114957705
75	0xbd5e14f3	-0.054219197
76	0x3c42065e	0.011842338
77	0xbcb910cf	-0.022591023
78	0x3d603351	0.05473644
79	0x3def59a8	0.116870224
80	0x3ce58532	0.028017614
81	0xbe651a99	-0.22373427
82	0xbe950466	-0.29104918
83	0x3cb16e4b	0.021659037
84	0xbd84bb1a	-0.06480999
85	0x3cd5d607	0.026103033
86	0x3d00a634	0.031408504
87	0xbe5b5eac	-0.21422833
88	0xbc966d2b	-0.018362602
89	0x3c4969c9	0.012293288
90	0x3bc258f6	0.005931015
91	0xbc6ef908	-0.014585741
92	0xbde6c91e	-0.11268829
93	0xbd26d0eb	-0.040726583
94	0xbd13fc38	-0.036129206
95	0x3d8bfbe2	0.06835152
96	0x3d6280a6	0.05529847
97	0xbd6c8c05	-0.05775072
98	0xbc355a90	-0.011068955
99	0xbdf82372	-0.12116136
100	0xbdba526b	-0.09097751
101	0xbe0de908	-0.13858426
102	0xbe6892c9	-0.22712244
103	0xbe408726	-0.18801555
104	0x3df9c9e9	0.121967144
105	0x3e1a7453	0.15083437
106	0x3ba952dc	0.0051673483
107	0xbd058253	-0.03259499
108	0xbd9603da	-0.073249534
109	0xbd16a943	-0.036782514
110	0x3d6b4490	0.057438433
111	0xbd7b6572	-0.061376043
112	0xbc1878a6	-0.009306109
113	0xbc6c9016	-0.01443865
114	0xbd5dd981	-0.054162506
115	0xbd8acbdc	-0.06777164
116	0xbd8407e5	-0.06446818
117	0x3dd56a2b	0.104206406
118	0x3e1467e4	0.14492756
119	0x3dce1215	0.100620426
120	0x3cbf615c	0.023361854
121	0xbd71d09c	-0.059036836
122	0xbdeb49c6	-0.114886805
123	0xbdaecfe8	-0.08535749
124	0x3c502627	0.012704409
125	0xbd0a26b7	-0.033728328
126	0xbbac7273	-0.005262667
127	0xbdad3f31	-0.084593184
128	0x3dd9eb24	0.10640553
129	0x3ce30873	0.02771399
130	0x3e011e9b	0.12609331
131	0x3cd9bd14	0.026579417
132	0x3da98e06	0.08279042
133	0x3d7e4c42	0.062084444
134	0x3d8450d2	0.06460728
135	0xba37257d	-0.0006986482
136	0xbc82e0c3	-0.015976315
137	0x3d74cd5b	0.059766155
138	0xbc7197dd	-0.01474568
139	0xbd9981a2	-0.074954286
140	0xbd8c83f3	-0.06861105
141	0x3d7e73fe	0.062122338
142	0x3d916451	0.07099212
143	0xbdd657f9	-0.10465998
144	0xbe1f8c52	-0.15580872
145	0xbcb17c24	-0.02166564
146	0xbda35672	-0.079754725
147	0x3e27b4df	0.1637759
148	0xbdacebe9	-0.08443434
149	0x3cf3432c	0.029695116
150	0xbe16e96d	-0.14737482
151	0x3d87e118	0.0663473
152	0xbe155d04	-0.14586264
153	0xbc0ee6a8	-0.008721985
154	0xbbec1661	-0.007204816
155	0x3d17de1b	0.03707705
156	0xbe246daf	-0.16057466
157	0xbc3f9bad	-0.011694831
158	0xbe318e76	-0.17339501
159	0x3e23f649	0.16011919
160	0x3e0a8f7e	0.135313
161	0x3dd211f8	0.102573335
162	0xbe3f9214	-0.18708068
163	0x3da628ac	0.08113226
164	0x3d681170	0.056657255
165	0x3d8e0501	0.06934548
166	0x3ced52db	0.028970173
167	0x3e322138	0.17395484
168	0x3e3e9911	0.18613078
169	0x3b915346	0.004434976
170	0x3c59da4f	0.013296678
171	0xbdba05d3	-0.09083142
172	0x3ddff5b2	0.109355345
173	0x3ce0792f	0.027401535
174	0xbc6bbf97	-0.01438894
175	0xbe776377	-0.24159037
176	0x3dbc70c2	0.09201194
177	0x3d238f87	0.0399318
178	0x3d9a3f9b	0.07531663
179	0x3ceddc1c	0.02903562
180	0x3e212436	0.1573647
181	0xbd510d19	-0.05103788
182	0x3cb4d5bf	0.022074578
183	0x3e1dd9cf	0.15415119
184	0x3d2cd753	0.042197537
185	0x3d4aa130	0.049470127
186	0xbd8958d0	-0.06706393
187	0x3a5f7428	0.00085240835
188	0xbdeae0ef	-0.11468684
189	0x3df20e27	0.118191056
190	0xbc206d6d	-0.009791714
191	0x3d1ebbdb	0.03875337
192	0xbd713830	-0.058891475
193	0x3e1385f5	0.1440657
194	0xbd551919	-0.052025888
195	0xbd0106c0	-0.031500578
196	0xbde47e26	-0.111568734
197	0x3d4d2064	0.05007972
198	0xbdc09229	-0.09402878
199	0x3cb86e28	0.022513464
200	0xbd2564ed	-0.040379453
201	0xbd5e0ffa	-0.054214455
202	0x3d0ca9e3	0.034341704
203	0x3e3ae01a	0.1824955
204	0xbe2f6a55	-0.17130406
205	0x3d2d5aef	0.04232305
206	0xbc6ad8a2	-0.014333876
207	0xbd7c6867	-0.061623003
208	0x3dbca9e6	0.09212093
209	0xbcfe9da4	-0.031081028
210	0xbe6deabc	-0.23234075
211	0x3d06f96f	0.032952722
212	0xbdc3d5c7	-0.09562259
213	0x3d1edfdd	0.03878771
214	0x3dd76f1a	0.10519238
215	0xbdac70f7	-0.08419984
216	0xbbc3d3e5	-0.0059761875
217	0xbd0d450b	-0.034489673
218	0xbd6804e6	-0.056645297
219	0xbbb93176	-0.005651648
220	0xbc9013be	-0.017587539
221	0xbc793706	-0.0152108725
222	0x3ce1c58b	0.027560016
223	0xbe1801b5	-0.14844401
224	0x3dd4f214	0.10397735
225	0xbd9212f0	-0.07132518
226	0xbc5c9e28	-0.013465442
227	0xbcb0472a	-0.021518309
228	0x3c9bd026	0.019020151
229	0x3d82f5ec	0.06394562
230	0x3bfd58dd	0.0077315406
231	0x3d93a608	0.07209402
232	0xbd8d7f72	-0.06909074
233	0xbe5b4c38	-0.21415794
234	0x3dadeef0	0.08492839
235	0xbd90b549	-0.070658274
236	0x3c0028e3	0.007822248
237	0xbca90b9f	-0.020635424
238	0x3e59f1e1	0.21283676
239	0xbd6429ad	-0.055703808
240	0xbe6037fa	-0.21896353
241	0x3d535444	0.051594034
242	0x3d90d707	0.07072263
243	0xbcf80d2e	-0.030279722
244	0xbd4e2e61	-0.0503372
245	0x3d077d9c	0.033078775
246	0x3d1e407f	0.038635727
247	0x3d59d6cd	0.053183366
248	0xbb478a2e	-0.0030447352
249	0xbc846211	-0.016160043
250	0x3e18260a	0.14858261
251	0xbd490015	-0.049072344
252	0xbe1b5b28	-0.15171492
253	0x3d81de3d	0.06341217
254	0xbb237c82	-0.0024946039
255	0x3d638fa1	0.055556897

fc2_1.bias f4 [256]
0	0x3cee0ba7	0.02905829
1	0xbdad76ab	-0.084699
2	0xbc95974a	-0.018260617
3	0x3bdf3bd5	0.0068125525
4	0x3c4261ed	0.011864168
5	0x3ac03260	0.001466345
6	0x3cd7fe36	0.026366334
7	0x3d412919	0.047158334
8	0x3c02646e	0.007958515
9	0x3c82a528	0.015947893
10	0x3d1c1b2a	0.038111843
11	0x3e10911b	0.14117853
12	0x3c99019f	0.01867753
13	0x3cf5459a	0.029940415
14	0xbd84ea9a	-0.06490059
15	0x3d4fa8bd	0.05069803
16	0xbdd1e77e	-0.10249232
17	0xbcd08ea3	-0.02545864
18	0x3d314ab1	0.043284122
19	0xbd87f34f	-0.06638204
20	0xbda6dc0a	-0.08147438
21	0xbd9c8d39	-0.076441236
22	0xbd3f1df7	-0.046659436
23	0x3b77a038	0.0037784707
24	0xbcdb5e05	-0.02677823
25	0x3d1cf1d8	0.038316578
26	0xbd9f366a	-0.077740505
27	0x3d856e2f	0.065151565
28	0x3c25a9f5	0.010111322
29	0xbd0bca70	-0.034128606
30	0xbd2807e7	-0.04102316
31	0x3d909364	0.070593625
32	0xbb8922b1	-0.0041850437
33	0xbd148cd3	-0.036267113
34	0x3d73afae	0.059493713
35	0x3be75bb9	0.0070604947
36	0x3d373e0a	0.0447369
37	0xbd1efdb1	-0.038816158
38	0x3caeb87b	0.021328202
39	0xbdfd7f52	-0.123778
40	0xbd98aa9b	-0.074544154
41	0xbcd2cfbe	-0.025733825
42	0x3bac4550	0.005257286
43	0x3d3cdaa3	0.046106946
44	0xbd92a3af	-0.071601264
45	0x3d8be7bc	0.06831309
46	0xbcb6cda7	-0.02231486
47	0x3cc4a7f2	0.024005864
48	0xbd895394	-0.067053944
49	0xbcb0ebd3	-0.021596825
50	0x3d36d6de	0.044638507
51	0x3d8ea059	0.06964178
52	0x3e165741	0.14681722
53	0xbd3bcf27	-0.045851853
54	0x3cc420a5	0.023941347
55	0x3dd11a5e	0.10210107
56	0x3d6d1987	0.057885673
57	0xbcbe1d21	-0.02320725
58	0x3d9dba65	0.077015676
59	0x3da0c932	0.07850875
60	0x3cc1d9f8	0.023663506
61	0x3d7c3850	0.06157714
62	0xbc39ea4c	-0.011347365
63	0xbb86e36c	-0.0041164663
64	0x3de48612	0.111583844
65	0x3dbeb66d	0.09312139
66	0x3cfa9f4f	0.030593542
67	0xbd5494e9	-0.051899824
68	0x3dcaee9a	0.09908791
69	0xbdb454ca	-0.08805235
70	0x3bddffc1	0.006774873
71	0xbbaa49d5	-0.0051967897
72	0x3d308bdc	0.04310213
73	0x3cfc1436	0.030771356
74	0xbd14b10c	-0.036301658
75	0x3cbc822e	0.023011293
76	0xbd16a0b1	-0.03677434
77	0x3bc876b1	0.0061176647
78	0xbd12ba5f	-0.03582227
79	0x3d3a40c6	0.04547193
80	0xbd513e66	-0.0510849
81	0x3de77314	0.11301246
82	0xbce5421e	-0.027985629
83	0x3c3f89cf	0.011690571
84	0x3d9c8fed	0.07644639
85	0x3b202e0b	0.0024441506
86	0x3da3e923	0.08003452
87	0x3d1797a6	0.037009858
88	0x3cfe88a2	0.031071011
89	0x3cf6bc95	0.03011922
90	0xbe036d52	-0.12834671
91	0xbdd06044	-0.10174611
92	0x3d94848a	0.07251842
93	0xbd1e8621	-0.038702134
94	0xbcec8349	-0.028871195
95	0x3d2457af	0.040122684
96	0x3bf469a9	0.0074588847
97	0xbd7c39c2	-0.06157852
98	0xbc45d899	-0.012075567
99	0xbd9615f6	-0.073284075
100	0x3d6a2db9	0.05717251
101	0xbcc019de	-0.023449834
102	0xbc80765a	-0.015681434
103	0x3cb3685b	0.021900347
104	0xbbb8d8a8	-0.005641062
105	0xbc9fa23b	-0.019486537
106	0xbd41e90e	-0.0473414
107	0xbce30a03	-0.027714735
108	0x3d0949d3	0.03351767
109	0xbd4493c7	-0.047992494
110	0x3d9e0077	0.077149324
111	0xbb98dc9d	-0.004664971
112	0x3d9180ab	0.071046196
113	0x3d247a48	0.04015568
114	0xbd8d8b22	-0.06911303
115	0xbd168959	-0.03675208
116	0x3c7bd6ec	0.015371066
117	0x3ced0baa	0.028936226
118	0x3c9cd05b	0.01914232
119	0x3ca39052	0.019966278
120	0xba82d4e7	-0.0009981663
121	0xbd4529a7	-0.048135426
122	0x3cb6d409	0.022317903
123	0xbd615647	-0.05501392
124	0xbd97d0ad	-0.074128486
125	0x3d51edeb	0.051252287
126	0xbd3616f2	-0.044455476
127	0x3dde33ae	0.10849701
128	0x3d87a7d6	0.06623809
129	0x3d67f120	0.05662644
130	0xbd017610	-0.031606734
131	0x3d067d04	0.032834068
132	0xbd370983	-0.044686805
133	0x3b7df0c5	0.0038748246
134	0x3d22dca6	0.039761208
135	0xbc3ec59b	-0.0116437925
136	0xbca31ffe	-0.019912716
137	0x3e1947f8	0.1496886
138	0x3d1ecd74	0.038770154
139	0x3d133538	0.035939425
140	0x3d378ef1	0.044814054
141	0xbd6a1652	-0.057150193
142	0xbd487fcf	-0.048950013
143	0xbd809bd6	-0.06279723
144	0x3b4cf10c	0.0031271605
145	0x3d3a4c77	0.04548308
146	0x3c11b579	0.008893364
147	0xbdbc9638	-0.092083395
148	0xbbf9b93b	-0.007620958
149	0x3c71e014	0.014762897
150	0x3d079e7c	0.033110127
151	0x3c6b919a	0.014377976
152	0x3d4ea799	0.050452802
153	0x3d149443	0.036274206
154	0x3d935524	0.07193974
155	0x3cb85272	0.02250025
156	0xbd3bf0e9	-0.045884047
157	0xbc1c9d2d	-0.009558958
158	0xbd60858c	-0.05481486
159	0x3d9d8fb9	0.076934285
160	0x3d1aa7b2	0.037757583
161	0xb9e1c787	-0.00043064004
162	0x3c858ba2	0.016301934
163	0xbcab7293	-0.020928657
164	0xbd6d39f1	-0.057916585
165	0x3daca460	0.084297895
166	0x3da3c9a7	0.079974465
167	0x3e14d501	0.1453438
168	0x3c903280	0.017602205
169	0x3d30141b	0.042987924
170	0xbcd9ad90	-0.026572019
171	0x3cb75bee	0.022382703
172	0x3d4f8450	0.050663292
173	0xbd9558ec	-0.07292351
174	0x3d900043	0.070313
175	0x3d864b7d	0.06557367
176	0x3dd1076a	0.10206492
177	0xbd0efc61	-0.034908656
178	0x3d58137f	0.052752968
179	0x3cddd0e0	0.027077138
180	0x3dad8dd8	0.0847432
181	0x3c06bc77	0.008223644
182	0x3bab730c	0.0052322205
183	0xbc943754	-0.018092789
184	0xbd85a826	-0.065262124
185	0x3d91cae0	0.071187735
186	0x3d508454	0.050907448
187	0xbd892c1d	-0.06697867
188	0x3c2a4fce	0.0103950035
189	0x3c19129d	0.009342817
190	0x3d48fe58	0.049070686
191	0x3c1c8ff0	0.009555802
192	0xbd015ddc	-0.031583652
193	0x3d8723a6	0.06598596
194	0x3d8da273	0.0691575
195	0x3d1df719	0.03856573
196	0x3cc2509c	0.023720078
197	0x3d612ddd	0.05497538
198	0x3dc2aa65	0.095051564
199	0xbd86ec57	-0.06588047
200	0x3b2219da	0.0024734647
201	0x3d475edb	0.048674446
202	0x3d709089	0.05873159
203	0x3d26d4a5	0.040730137
204	0xbd0d0729	-0.034430657
205	0xbd46ef65	-0.04856815
206	0xbd9a0628	-0.075207055
207	0x3d512a26	0.051065587
208	0xbcf6dad4	-0.030133642
209	0xbd4daad7	-0.050211754
210	0xbbca49e0	-0.0061733574
211	0x3c1bb322	0.009503158
212	0x3d6b6d43	0.057477247
213	0x3caeaf65	0.021323869
214	0xbd232a98	-0.039835542
215	0x3d927740	0.071516514
216	0x3d0eed93	0.034894537
217	0x3aa0dfce	0.001227373
218	0x3dcfc6fe	0.101453766
219	0xbdb3fc07	-0.08788305
220	0x3d327440	0.043567896
221	0xbd4409e6	-0.047861002
222	0x3db7f098	0.089814365
223	0xbcef5687	-0.029216064
224	0xbc7fde61	-0.015616984
225	0x3d5a69b6	0.05332347
226	0x3cff1183	0.03113628
227	0xbd3d53c5	-0.046222467
228	0x3d5e221e	0.054231755
229	0xbcc5f271	-0.024163457
230	0x3c49512f	0.012287422
231	0x3d23e200	0.040010452
232	0xbd1a649d	-0.03769361
233	0xbde6a902	-0.112627044
234	0xbc62e752	-0.013849096
235	0xbd3ebd6d	-0.04656737
236	0x3d1c3c2b	0.03814332
237	0xbce4f094	-0.027946748
238	0x3c18fcd9	0.009337627
239	0xbe190ac9	-0.1494552
240	0x3c3320ae	0.010933084
241	0x3cf03871	0.029323788
242	0x3dc75139	0.09732289
243	0xbbd613ff	-0.0065331454
244	0x3da26785	0.07929901
245	0xbd13637d	-0.03598355
246	0x3d066a79	0.032816384
247	0xbcb493ec	-0.02204319
248	0x3cbfca41	0.023411872
249	0x3d0cd4e3	0.034382712
250	0xba8150eb	-0.0009866034
251	0xbd82e640	-0.06391573
252	0xbbda4c7b	-0.006661949
253	0x3c903eb7	0.01760803
254	0x3d8fcac8	0.07021099
255	0x3d0e7480	0.03477907

fc2_2.weight f4 [256, 256]
0	0x3d75f80a	0.060051
1	0x3dc7cc9e	0.097558245
2	0xbd0415da	-0.0322474
3	0xbbdbe123	-0.006710188
4	0x3d9f4c93	0.07778277
5	0x3cef94d4	0.029245771
6	0xbda9f418	-0.0829851
7	0x3c96591b	0.018353036
8	0x3e0630c5	0.13104542
9	0x3db04b25	0.08608083
10	0xbd97eee1	-0.074186094
11	0x3d0c5122	0.03425706
12	0xbe0c8b1b	-0.1372494
13	0x3d32d1e1	0.043657187
14	0xbe86c734	-0.26323855
15	0x3dd25dcf	0.10271799
16	0x3daa99bb	0.08330103
17	0xbc0ded2e	-0.008662505
18	0xbe01fb00	-0.12693405
19	0x3eb28ccd	0.34873047
20	0xbee5106b	-0.44739088
21	0x3d0fd929	0.03511921
22	0xbea9d352	-0.33169037
23	0x3e2ad4ae	0.16682693
24	0xbd455897	-0.04818019
25	0xbc22266c	-0.009896856
26	0xbe52d347	-0.20588408
27	0xbd2fe2f3	-0.042941045
28	0xbbc0d806	-0.005885127
29	0xbd1525a7	-0.03641286
30	0x3c7bda3f	0.015371858
31	0xbd876c31	-0.06612433
32	0xbe9dfa6e	-0.30855125
33	0xbd88a990	-0.066729665
34	0xbd4c4524	-0.049870625
35	0xbdbd7958	-0.0925166
36	0xbe6e441c	-0.23268169
37	0xbe98eff6	-0.29870576
38	0x3cd9840d	0.026552225
39	0x3e20e7c2	0.15713409
40	0x3ce359b4	0.027752735
41	0x3eb09c5a	0.34494287
42	0xbdc0afe5	-0.09408549
43	0xbba9b9ec	-0.0051796343
44	0xbdd55cd5	-0.10418097
45	0x3ddf6192	0.10907282
46	0x3dacedcf	0.08443796
47	0x3c175f0e	0.009238971
48	0xbe810c77	-0.25204822
49	0xbe7255b5	-0.23665507
50	0x3de9b980	0.114123344
51	0xbe3aec03	-0.18254094
52	0x3dc06295	0.09393803
53	0x3d569c13	0.052394938
54	0x3e2c78f0	0.16843009
55	0x3d0e032c	0.034670994
56	0xbcfe5932	-0.031048391
57	0x3d343933	0.043999862
58	0x3ce7cefb	0.028296938
59	0x3e25f653	0.16207246
60	0x3e45374e	0.19259378
61	0xbe585f42	-0.21130088
62	0xbe5f32d2	-0.2179673
63	0x3d6fbf35	0.05853196
64	0x3d3719e2	0.04470242
65	0x3e2125a7	0.1573702
66	0xbceb6b93	-0.028737819
67	0xbe9bfe25	-0.30467334
68	0x3ddd605c	0.10809395
69	0x3e12193f	0.14267443
70	0xbd0d5035	-0.03450032
71	0xbc834931	-0.016026111
72	0xbd0e7194	-0.034776285
73	0xbe64fa05	-0.22361
74	0x3dad1ee8	0.084531605
75	0xbdff7b12	-0.12474646
76	0xbdd93164	-0.10605124
77	0xbd2ada4a	-0.041712083
78	0xbeca1da2	-0.39475733
79	0x3e01e5ca	0.12685314
80	0x3da5e816	0.081009075
81	0x3d3167eb	0.043311995
82	0x3c49a469	0.012307265
83	0xbe4ccda9	-0.20000328
84	0x3d8d2573	0.068919085
85	0xbd04dd4c	-0.032437608
86	0x3c61b96f	0.013777121
87	0x3e8167d4	0.25274527
88	0x3de9361e	0.11387275
89	0xbeeaa55a	-0.45829278
90	0xbec0b67c	-0.37639225
91	0xbcb33d02	-0.021879677
92	0x3d5e0eb6	0.05421325
93	0xb987a7fc	-0.00025874365
94	0xbbaa9af7	-0.0052064615
95	0x3d882d67	0.06649285
96	0xbe525153	-0.20538835
97	0xbe5d2544	-0.21596247
98	0xbe017c46	-0.12645063
99	0x3d042ecb	0.032271188
100	0x3c3a80d3	0.011383253
101	0x3c8aee78	0.016959414
102	0x3e7eaa60	0.2486968
103	0x3e06995e	0.13144442
104	0x3d422cac	0.047405884
105	0xbe3f2d60	-0.18669653
106	0x3db8a223	0.090153
107	0x3dd10466	0.10205917
108	0xbdc43e25	-0.09582166
109	0xbdc27cb2	-0.0949644
110	0x3ced2da6	0.028952431
111	0xbebbcaca	-0.36678153
112	0x3ca761a8	0.020432308
113	0xbdbb9a01	-0.09160233
114	0xbe250eef	-0.16118978
115	0x3c573e26	0.013137376
116	0xbe502412	-0.2032626
117	0xbdd7999b	-0.10527345
118	0x3e2326c4	0.15932757
119	0x3d791310	0.060809195
120	0xbc3f8a68	-0.011690713
121	0xbd9ef7d2	-0.07762112
122	0x3e091323	0.13386206
123	0xbe0c96bc	-0.13729376
124	0xbe87f405	-0.2655336
125	0x3e0a66ee	0.13515827
126	0x3e71ea23	0.23624472
127	0x3cce53d5	0.025186459
128	0xbd80533b	-0.06265875
129	0xbc782552	-0.015145617
130	0x3e4d0403	0.20021062
131	0xbdb4c4b3	-0.0882658
132	0xbce4c77d	-0.027927155
133	0x3dee468b	0.11634549
134	0xbb805ef8	-0.003917571
135	0x3d291f8a	0.041289844
136	0xbe4a2dde	-0.1974406
137	0xbe54d93f	-0.20785998
138	0x3dacabea	0.084312275
139	0x3dfb7aa5	0.12279252
140	0xbdabbe4b	-0.08385905
141	0xbb23f390	-0.0025017
142	0x3df192cf	0.1179558
143	0x3dad1aed	0.08452401
144	0xbc7dd12d	-0.015491766
145	0xbddcbcc5	-0.107781924
146	0xbefc751c	-0.49308097
147	0xbebe15e5	-0.3712608
148	0xbdb6fb08	-0.08934599
149	0x3df709e2	0.12062432
150	0xbc615506	-0.013753181
151	0x3c779bda	0.0151128415
152	0xbcfcb9ba	-0.03085028
153	0x3d1bcc5b	0.038036685
154	0x3d6d3398	0.05791053
155	0x3ddd8dc0	0.10818052
156	0x3d1f2433	0.03885288
157	0x3e17acca	0.14812008
158	0x3d5a489d	0.053291906
159	0xbd4224e3	-0.04739846
160	0x3dd3e366	0.10346107
161	0xbdaf50c1	-0.085603245
162	0xbbb599c2	-0.005542011
163	0x3d747996	0.059686266
164	0xbdba9991	-0.09111322
165	0xbd5bfacd	-0.05370598
166	0xbe00a450	-0.1256268
167	0xbdb82413	-0.089912556
168	0xbe4c8c02	-0.19975284
169	0xbd8c2eb9	-0.06844849
170	0xbc0a0bc7	-0.0084256595
171	0x3ddd653b	0.10810324
172	0xbe026c02	-0.12736514
173	0x3e3a797a	0.18210402
174	0xbe272004	-0.16320807
175	0xbb99c23d	-0.0046923445
176	0x3d8a6e02	0.067592636
177	0xbe43029c	-0.19043964
178	0xbdf39272	-0.118931666
179	0xbe186e7f	-0.14885901
180	0xbd6a9168	-0.057267576
181	0x3c8dc042	0.01730359
182	0x3e0d3942	0.13791373
183	0xbdb40b44	-0.08791211
184	0x3df0fa2f	0.11766469
185	0xbe20c529	-0.1570021
186	0xbe6d5d41	-0.23180105
187	0xbe2959d8	-0.16538179
188	0x3ddae1be	0.10687588
189	0x3ccadf62	0.02476472
190	0xbe76f4ce	-0.24116823
191	0x3d194141	0.037415747
192	0x3d9330ac	0.07187018
193	0x3dbef257	0.093235664
194	0x3db3095a	0.08742018
195	0xba6b93d7	-0.00089865684
196	0xbe87dbdf	-0.26534936
197	0x3dc0f92d	0.094225265
198	0x3c42b3a9	0.011883655
199	0x3dcc2a8d	0.099690534
200	0xbcc35ef4	-0.023848988
201	0xbcc3183e	-0.02381527
202	0xbdcab4bf	-0.09897756
203	0xbda93d3d	-0.082636334
204	0xbda1f45c	-0.07907936
205	0x3d4947cf	0.049140748
206	0x3ca5edaf	0.020254938
207	0xbd8344bb	-0.06409594
208	0xbe0beffc	-0.13665766
209	0x3db78278	0.08960432
210	0xbec808d9	-0.3906925
211	0x3e0f93ae	0.14021179
212	0x3d04ad81	0.03239203
213	0x3bf74f4b	0.0075472943
214	0xbe1a50bf	-0.15069865
215	0x3e0929f2	0.13394907
216	0x3cd3e464	0.025865741
217	0x3e3c6c4e	0.1840069
218	0x3db3c4c6	0.08777766
219	0x3d4ffc40	0.050777674
220	0xbd698151	-0.05700809
221	0xbdc4bf0f	-0.09606754
222	0x3e185994	0.14877921
223	0x3e2346f5	0.15945037
224	0x3da2d0a9	0.07949955
225	0x3e5de4ee	0.21669361
226	0x3e0fd409	0.14045729
227	0x3ee76bc3	0.45199403
228	0x3e1f1734	0.15536195
229	0x3e120ba8	0.14262259
230	0xbe75e306	-0.24012384
231	0x3e76eb28	0.24113142
232	0xbe936bc0	-0.28793144
233	0xbe45dc2f	-0.19322275
234	0xbd3dbb2a	-0.04632107
235	0xbde301c4	-0.11084321
236	0x3d6b79fb	0.057489377
237	0xbd8ec5ce	-0.06971322
238	0x3d936a9c	0.071980685
239	0xbdf9e355	-0.12201563
240	0x3c80d0dc	0.015724592
241	0x3e03f712	0.12887219
242	0xbe0d8726	-0.13821086
243	0xbe5af5a7	-0.21382771
244	0xbe0b359a	-0.13594666
245	0xbe85a2cd	-0.2610077
246	0xbe91114f	-0.28333518
247	0x3c90b290	0.01766327
248	0xbe065fc7	-0.13122474
249	0x3d9185ab	0.07105573
250	0x3d857a99	0.06517524
251	0x3e29c776	0.16579995
252	0xbd986ed7	-0.07443016
253	0xbe6363c5	-0.22206028
254	0xbe6fa99a	-0.23404542
255	0xbd90c936	-0.07069628

fc2_2.bias f4 [256]
0	0xbd28733e	-0.04112553
1	0xbd7cb92c	-0.06170003
2	0x3dc2da69	0.09514315
3	0xbda8e918	-0.08247584
4	0xbdb1ed80	-0.08687878
5	0x3dd74b60	0.105124235
6	0x3ce43f1b	0.027862122
7	0xbd06ced3	-0.032912087
8	0x3d384be3	0.044994246
9	0xbda064bf	-0.07831716
10	0x3d548191	0.051881377
11	0xbd68ba51	-0.05681831
12	0x3c89b734	0.01681099
13	0x3d06bd8e	0.032895617
14	0xbca06b53	-0.019582426
15	0x3d4081ac	0.046998665
16	0x3b5e875e	0.0033955197
17	0x3c6d74d1	0.014493183
18	0x3cd0c5fe	0.025485035
19	0xbcfd7d27	-0.030943466
20	0xbd4f6697	-0.050634947
21	0xbd66153d	-0.0561726
22	0x3d116e5b	0.035505634
23	0x3d56b4a1	0.052418355
24	0xbd22a3c3	-0.039706957
25	0x3d8d3eab	0.068967186
26	0x3d8d4c6c	0.06899342
27	0x39c97246	0.00038422848
28	0x3da0a574	0.07844058
29	0x3c4884ac	0.012238663
30	0x3d2fa511	0.04288203
31	0xbd1f5896	-0.03890284
32	0x3b9af6d8	0.004729133
33	0xbcd77f22	-0.026305739
34	0x3d123fb3	0.03570528
35	0xbdbb5efa	-0.09148975
36	0x3b477248	0.0030433107
37	0x3df258ac	0.11833319
38	0xbdfabe82	-0.12243368
39	0x3d130a6c	0.03589861
40	0xbdc96d87	-0.09835344
41	0xbdcd74de	-0.10032056
42	0xbd2df5e4	-0.042470828
43	0x3d48d601	0.049032215
44	0x3d5a6943	0.05332304
45	0xbd29e964	-0.041482344
46	0xbcb8988d	-0.02253368
47	0x3c9d9a73	0.019238686
48	0xbd96c24b	-0.07361277
49	0x3d7e6bea	0.062114634
50	0x3cd484bf	0.025942205
51	0x3d5d5a06	0.05404093
52	0x3c808525	0.015688488
53	0x3cedf801	0.029048922
54	0xbd7ce7de	-0.061744563
55	0x3c2eb91c	0.010664251
56	0x3d3584aa	0.04431597
57	0x3d37d346	0.04487922
58	0x3d9c2345	0.07623915
59	0x3dcccf40	0.10000467
60	0xbd3fab7f	-0.04679441
61	0x3dad62de	0.08466123
62	0xbd8bbed9	-0.06823511
63	0x3a636005	0.0008673671
64	0xbd349c0b	-0.044094127
65	0x3dd6de43	0.10491612
66	0x3c3c0385	0.0114754485
67	0x3cb3755a	0.021906544
68	0x3c9834e1	0.018579902
69	0xbccf9c57	-0.025343103
70	0x3d5455c6	0.051839612
71	0x3d8a7228	0.06760055
72	0x3ca093bc	0.019601695
73	0x3d079ef8	0.03311059
74	0xbd9d4285	-0.07678703
75	0xbd566155	-0.052338917
76	0xbcdcbbe6	-0.026945066
77	0xbd0d9e33	-0.0345747
78	0x3bc2975c	0.0059384536
79	0x3dbb6f8e	0.09152137
80	0x3d22d36b	0.039752405
81	0x3c5e24f5	0.013558616
82	0xbdf876f1	-0.12132061
83	0x3bb1b496	0.005423139
84	0xba629e23	-0.000864478
85	0x3cc5009c	0.024048142
86	0xbe021e90	-0.12706971
87	0xbd98adbd	-0.07455013
88	0xbd16ee96	-0.036848627
89	0x3c1ed352	0.009693937
90	0x3cae8850	0.021305233
91	0xbdb656ef	-0.089033
92	0x3d7662ef	0.060152944
93	0xbc42f0ce	-0.011898233
94	0x3d8d4165	0.06897239
95	0xbcc4fb43	-0.024045592
96	0x3c9a9a6b	0.01887246
97	0xbd026f17	-0.031844225
98	0xbcb071c9	-0.021538632
99	0x3c9d90b2	0.019234035
100	0x3d869044	0.06570485
101	0x3bbe9dbc	0.0058171432
102	0x3d577554	0.052602127
103	0x3c472a09	0.012156018
104	0xbc582186	-0.013191586
105	0xbce5c903	-0.028049951
106	0xbc91ccb6	-0.01779781
107	0xbddcfb94	-0.10790172
108	0x3d61b99e	0.05510866
109	0x3d1f8547	0.038945463
110	0x3b02405f	0.0019874794
111	0x3d333bb3	0.043758105
112	0x3d6e63aa	0.058200516
113	0x3da9926c	0.08279881
114	0x3d06cf1d	0.032912362
115	0xbc366f53	-0.01113494
116	0x3d1b78cd	0.037957
117	0x3e01302c	0.12616032
118	0x3d571fb3	0.052520465
119	0xbb0123fb	-0.0019705284
120	0xbd3dbcd2	-0.04632265
121	0x3d709f45	0.05874564
122	0x3bf01d3b	0.0073277033
123	0x3d269792	0.040671892
124	0xbd052789	-0.032508407
125	0xbc679e60	-0.014136881
126	0xbbc0b601	-0.0058810716
127	0xbc8dfb1a	-0.017331649
128	0x3ce6c238	0.028168783
129	0xbcca2d96	-0.02467994
130	0xbdef263c	-0.116772145
131	0x3da76346	0.08173232
132	0x3d601038	0.054702967
133	0xbbbdc75f	-0.005791589
134	0x3cb37fc0	0.021911502
135	0xbcd4c884	-0.02597452
136	0x3b8505e1	0.0040595387
137	0x3d21e7f5	0.039527852
138	0x3bdbdfc6	0.0067100255
139	0xbdcb4906	-0.099260375
140	0x3d255e70	0.040373266
141	0xbc0a2b25	-0.008433138
142	0xbb11e424	-0.0022261227
143	0x3b94b9f0	0.004538767
144	0x3d259458	0.040424675
145	0xbd00009a	-0.031250574
146	0xbcc090f3	-0.023506617
147	0xbcc4ca98	-0.024022385
148	0x3d85d153	0.06534066
149	0x3ce0675f	0.027393041
150	0x3b7e43d5	0.0038797755
151	0x3d86bce6	0.06578998
152	0xbd824532	-0.06360854
153	0xba2d9ef5	-0.0006623113
154	0x3d420bc9	0.04737452
155	0x3b0f6112	0.0021877927
156	0xbc2ff618	-0.010739826
157	0xbad05c3c	-0.0015896629
158	0xbbe230ce	-0.0069027906
159	0x3d02d492	0.031941004
160	0x3d306cbb	0.043072443
161	0xbcfc7304	-0.030816562
162	0xbccc5429	-0.024942474
163	0x3d861b50	0.06548178
164	0x3d7c91de	0.061662547
165	0x3b390fce	0.002823818
166	0xbb587e06	-0.00330341
167	0xbdaa40a0	-0.083131075
168	0x3c93123d	0.017953033
169	0xbd601fce	-0.05471783
170	0xbd82a878	-0.06379789
171	0xbdcf0146	-0.10107665
172	0xbbfb34df	-0.007666215
173	0x3d7356bd	0.059408892
174	0x3cdeb6ce	0.027186777
175	0xbc042d83	-0.008067491
176	0x3d731b42	0.059352167
177	0x3d70db8e	0.058803134
178	0xbc95ae5f	-0.018271623
179	0x3c27e4f4	0.010247458
180	0xbd0eb461	-0.03483999
181	0xbd61f52d	-0.05516546
182	0xba28560d	-0.0006421514
183	0xbc85ef0c	-0.016349338
184	0x3cc2d1e9	0.023781734
185	0xbd80e0ff	-0.062929146
186	0x3b1a04c7	0.0023501383
187	0xbcf2d25b	-0.02964132
188	0xbc6d5e04	-0.014487747
189	0x3d8dae5f	0.06918024
190	0xbc9e58f0	-0.019329518
191	0xbcb9cda9	-0.022681074
192	0x3d431ffe	0.047637932
193	0x3dd72665	0.1050537
194	0x3d7ce3e2	0.061740763
195	0x3c66d763	0.014089438
196	0xbdc52e0f	-0.096279256
197	0xbca08a3d	-0.019597167
198	0x3d34a6a9	0.044104252
199	0xbd19301a	-0.03739939
200	0x3df0de86	0.11761193
201	0xbc9f33b1	-0.019433828
202	0xbcbf0192	-0.023316178
203	0xbd81bafc	-0.063344926
204	0x3dbf540f	0.09342205
205	0x3def8410	0.11695111
206	0xbcd924bd	-0.026506776
207	0xbd820aa0	-0.06349683
208	0xbca3ddfd	-0.020003313
209	0x3d762013	0.060089182
210	0x3d6eead4	0.05832942
211	0x3b7b5789	0.0038351736
212	0xbcb1bfb9	-0.021697866
213	0xbcddebfc	-0.027090065
214	0xbc91d79d	-0.017803008
215	0xbd803ee1	-0.06261993
216	0xbc957b85	-0.018247375
217	0xbd3c1076	-0.045914136
218	0xbd0898be	-0.03334879
219	0x3ca8576a	0.020549495
220	0xbb1a90b4	-0.0023584785
221	0x3d6d2ab1	0.05790204
222	0x3d753d27	0.059872773
223	0x3c9e78af	0.019344656
224	0xbbbfe67e	-0.005856334
225	0x3c908f97	0.017646594
226	0xbd23b212	-0.039964743
227	0x3aa5cdf2	0.0012649877
228	0x3d07a56c	0.033116743
229	0xbd5bc114	-0.05365093
230	0xbd57d281	-0.052690987
231	0x3d366ca4	0.0445372
232	0xbce729f3	-0.028218245
233	0x3db4d187	0.08829027
234	0xbd841c4e	-0.06450711
235	0x3d0ecdc6	0.03486421
236	0xbcb6fbf7	-0.022336943
237	0x3dcb2a85	0.09920219
238	0x3ce90ef9	0.028449522
239	0xbd9c7797	-0.076399975
240	0xbd204a9b	-0.03913365
241	0x3d19138b	0.037372153
242	0x3d41f04e	0.047348313
243	0x3d39675e	0.045264594
244	0x3d01ea95	0.031717855
245	0xbcd0e4b7	-0.025499685
246	0x3d2125c2	0.03934265
247	0x3d0098c7	0.0313957
248	0x3c0fd427	0.008778608
249	0x3ca5d4e8	0.020243123
250	0xbd888f9e	-0.06668018
251	0xbd425338	-0.047442645
252	0x3c076676	0.008264175
253	0x3d1bfac9	0.038080964
254	0xbb118c91	-0.0022209028
255	0x3d85169b	0.06498452

fc3.weight f4 [4, 256]
0	0x3dfce151	0.12347663
1	0xbef72da8	-0.4827702
2	0xbcc3a8ac	-0.02388414
3	0x3dbfb9c2	0.09361602
4	0xbdff9576	-0.12479679
5	0x3d2baa43	0.04191042
6	0xbdca536c	-0.09879193
7	0xbeb60d9a	-0.35557252
8	0x3d90633c	0.070501775
9	0x3ea82954	0.3284403
10	0x3d296e03	0.04136468
11	0xbdc3531b	-0.095373355
12	0xbee47fb3	-0.44628677
13	0xbdfb5acb	-0.12273177
14	0xbf2bb86c	-0.6707828
15	0x3e864ef5	0.26232114
16	0x3d7b167e	0.061300747
17	0x3ecc9075	0.39953962
18	0x3ea89461	0.32925704
19	0xbf45d058	-0.7727103
20	0x3ec2a783	0.38018426
21	0x3f3a0c36	0.7267488
22	0x3e34f69e	0.17672202
23	0x3ed14539	0.40873125
24	0x3edb6dd8	0.42857242
25	0x3f6433fa	0.8914181
26	0x3e4cb63d	0.19991393
27	0xbf1f2a00	-0.6217346
28	0x3e819f53	0.25316867
29	0xbe0a424a	-0.1350185
30	0x3ebd567d	0.36980048
31	0xbc851db8	-0.016249523
32	0xbf1f5118	-0.62233114
33	0xbd3cbf9c	-0.04608117
34	0x3e2c6d72	0.16838625
35	0x3d5119d5	0.051050026
36	0xbe80771d	-0.25090876
37	0xbebf5899	-0.37372282
38	0x3f5e463c	0.8682592
39	0x3e779718	0.24178731
40	0x3e8046cd	0.25054017
41	0x3e5588cb	0.20852964
42	0x3ea63a44	0.32466328
43	0xbde011a9	-0.109408684
44	0xbe821c6f	-0.25412318
45	0x3f46b3d9	0.77618176
46	0xbe5e99f1	-0.21738411
47	0xbefe9b67	-0.49727938
48	0x3ed9eafc	0.4256209
49	0xbec6d681	-0.38835528
50	0x3f313dc2	0.6923486
51	0x3e868673	0.26274452
52	0xbe657e0b	-0.22411363
53	0x3e5f5fe0	0.21813917
54	0x3a18a576	0.00058229954
55	0xbdceb613	-0.10093322
56	0x3e090a8b	0.13382928
57	0xbf036e3f	-0.513401
58	0xbc0e4dd9	-0.0086855525
59	0xbe1d49f9	-0.1536025
60	0x3f107168	0.56423044
61	0xbdfcc613	-0.12342467
62	0x3f0b1531	0.5432921
63	0xbc5d7fe5	-0.013519262
64	0x3eb71658	0.35759234
65	0x3f0cbb73	0.54973525
66	0x3e577b12	0.21043041
67	0x3f380cc2	0.71894467
68	0xbb20f38f	-0.0024559235
69	0xbda1e48d	-0.07904921
70	0x3bbf1ba6	0.0058321534
71	0x3e8402c2	0.25783354
72	0xbef465c2	-0.47733885
73	0x3dfe8653	0.12427964
74	0x3b1a2438	0.0023520123
75	0x3cb83a45	0.022488723
76	0x3e330c71	0.17485215
77	0x3f111a6d	0.5668095
78	0xbeeead04	-0.46616375
79	0x3ca03d9f	0.019560633
80	0x3d95c4ef	0.07312953
81	0x3f060c29	0.52362305
82	0x3ebec3e8	0.3725884
83	0xb9936dd6	-0.0002811986
84	0x3e128c6a	0.14311376
85	0x3e6bb705	0.23019035
86	0xbe474810	-0.19461083
87	0x3eff1940	0.49823952
88	0xbe83a8a6	-0.25714606
89	0x3e777d33	0.24168853
90	0x3eeedd1e	0.46653074
91	0x3eafd16b	0.3433946
92	0x3f0cbd59	0.5497642
93	0x3df075a7	0.117411904
94	0xbe942437	-0.2893388
95	0xbf182de0	-0.59445
96	0x3eb13f3c	0.34618556
97	0x3e01fb20	0.12693453
98	0xbdd14dfc	-0.102199525
99	0xbdb209cd	-0.086932756
100	0xbeb21f70	-0.3478961
101	0xbda1e7ab	-0.07905515
102	0xbec49766	-0.38396758
103	0x3d8c9646	0.068646
104	0x3ed628d2	0.41828018
105	0x3d48ed81	0.049054626
106	0x3edcda64	0.4313537
107	0x3ddf2b8d	0.108969785
108	0x3e9934f9	0.29923227
109	0xbe6a780e	-0.2289736
110	0x3f7642f1	0.96195894
111	0xbe13db0b	-0.14439027
112	0x3eff2ef3	0.49840507
113	0xbd0a4b5e	-0.033763282
114	0x3e2f6476	0.17128167
115	0xbe611874	-0.21981984
116	0xbd14ea9a	-0.036356546
117	0xbe1abbd1	-0.15110709
118	0xbe2fff30	-0.1718719
119	0xbeace6ff	-0.33769986
120	0x3ea3b770	0.3197589
121	0xbcfe6aab	-0.031056723
122	0xbe7d7098	-0.24749982
123	0x3f0d7e2c	0.5527065
124	0x3e979b42	0.2961064
125	0x3da5ffa6	0.08105402
126	0xbe17759d	-0.1479096
127	0x3f809bce	1.0047548
128	0xbde3d65e	-0.11124872
129	0xbd51348e	-0.05107551
130	0x3ee8fa89	0.45503643
131	0xbdbde00c	-0.09271249
132	0x3f1fb0f0	0.6237936
133	0x3dcf5f66	0.10125618
134	0xbe3fa88c	-0.1871664
135	0xbe2cf4cc	-0.16890258
136	0x3f218c4a	0.6310469
137	0xbdf2dfa9	-0.11859066
138	0xbe8b9b3a	-0.27266866
139	0x3ebeba40	0.37251472
140	0x3f1bbb0d	0.6083229
141	0x3dc4ea11	0.09614957
142	0x3e7411fc	0.23834985
143	0x3e38fffc	0.180664
144	0xbea9b9e1	-0.33149627
145	0xbe9bcb4a	-0.30428535
146	0xbe18857e	-0.14894673
147	0x3e89a01f	0.26879975
148	0xbf285c28	-0.6576562
149	0xbe46f356	-0.19428763
150	0xbe822140	-0.25415993
151	0x3d30385d	0.043022502
152	0xbec0a3be	-0.37624925
153	0x3f04fa55	0.51944476
154	0x3d400892	0.046883173
155	0x3f7e529b	0.99344796
156	0xbeb77751	-0.3583322
157	0x3db8dcd8	0.090264976
158	0x3ecd6d29	0.40122345
159	0x3df08656	0.117443725
160	0xbef4e519	-0.47831038
161	0x3f8bfa76	1.093581
162	0xbeaa88ea	-0.33307582
163	0x3e69df78	0.22839153
164	0xbe74d531	-0.23909451
165	0x3f39d5fb	0.72592133
166	0x3eceadae	0.40366882
167	0x3e58dd42	0.21178153
168	0xbe3425fb	-0.17592613
169	0x3ca040c9	0.019562142
170	0x3dd4855e	0.10377
171	0xbe563b44	-0.20921046
172	0xbee6d074	-0.45080912
173	0xbe855562	-0.26041704
174	0xbf066133	-0.52492064
175	0x3edffd5d	0.43747988
176	0x3d620795	0.055183012
177	0xbe498066	-0.19677886
178	0xbf04818b	-0.51760167
179	0x3dab2a0d	0.0835763
180	0x3f1b135c	0.60576415
181	0xbec5da27	-0.38643
182	0x3f0aa6c7	0.5416073
183	0x3dd699d5	0.1047856
184	0xbea2d977	-0.31806538
185	0xbe9e27b4	-0.30889666
186	0xbe23b25e	-0.1598601
187	0xbd04ed92	-0.032453127
188	0x3ead5e8e	0.33861202
189	0xbf5a5db3	-0.85299224
190	0x3f399672	0.72495186
191	0x3d42f1b7	0.0475938
192	0x3eb5ff4c	0.3554634
193	0xbd36ffc6	-0.04467752
194	0xbe3f9367	-0.18708573
195	0x3db6ca80	0.089253426
196	0xbf28590d	-0.6576088
197	0x3eebd76d	0.46062794
198	0xbf073a2d	-0.52823144
199	0x3ea90001	0.33007815
200	0xbd8dd138	-0.06924671
201	0x3eb56407	0.35427877
202	0xbd190b33	-0.037364196
203	0xbf2413da	-0.6409279
204	0xbe11f25e	-0.14252612
205	0xbe4e94ca	-0.20173946
206	0x3f64e6a3	0.89414424
207	0x3e4ba0ab	0.19885509
208	0x3e709f42	0.23498252
209	0xbee6e4ce	-0.4509644
210	0xbf615322	-0.88017476
211	0xbd5edf17	-0.054411974
212	0xbde88814	-0.1135408
213	0x3dbb3660	0.091412306
214	0xbe531295	-0.20612557
215	0x3e809bee	0.25118965
216	0xbf422a52	-0.75845826
217	0x3ecfa3ae	0.40554565
218	0x3f235e89	0.63816124
219	0x3e3fac9c	0.18718189
220	0xbe38f4d3	-0.18062143
221	0x3e7e9f6f	0.24865507
222	0xbf0204ff	-0.50788873
223	0xbe543b30	-0.20725703
224	0xbe1ff592	-0.15621021
225	0xbe9dfab7	-0.30855343
226	0x3f816bee	1.0111063
227	0x3c560b7d	0.013064262
228	0xbe21afa0	-0.15789652
229	0xbe1cb542	-0.1530352
230	0xbf5a2098	-0.85205984
231	0x3e352c0b	0.17692582
232	0x3ee09058	0.43860126
233	0xbdce24dc	-0.10065624
234	0xbe64115e	-0.2227225
235	0x3eae2ae1	0.3401709
236	0x3e9380a1	0.28809074
237	0x3ee0cf26	0.43908042
238	0x3f2a6eb4	0.6657517
239	0x3e4329ec	0.1905896
240	0xbf39caae	-0.7257489
241	0x3d1ffffe	0.039062493
242	0xbe468809	-0.19387831
243	0xbd7c4177	-0.06158587
244	0xbd009e46	-0.03140094
245	0xbe98a7b2	-0.2981544
246	0x3e03d956	0.12875876
247	0x3efa40c3	0.48877534
248	0x3c89b3a0	0.016809285
249	0xbe60baa2	-0.21946195
250	0xbcf99e8e	-0.030471113
251	0x3ed86d6d	0.42270985
252	0x3ea47918	0.32123637
253	0xbf027669	-0.5096193
254	0xbe58c824	-0.21170098
255	0xbe8c93a2	-0.27456385

fc3.bias f4 [4]
0	0xbcd045db	-0.025423935
1	0xbd411b6b	-0.04714529
2	0x3d718078	0.058960408
3	0xbd9542c7	-0.072881274
